@import "tailwindcss";
@import "../ds/tokens.css";
@import "../ds/tailwind.css";
@import "../features/atlas/atlas.css";
@import "../features/org/org-chart.css";

/* ────────────────────────────────────────────────────────────
   Signal Design System 2.0 (Wave 2, 2026-07-02)
   System tokens live in the vendored src/ds/tokens.css — never
   here. This :root is repo-local only: legacy aliases on the
   burn-down path + Studio-specific semantics. ds-check enforces
   the split. Studio's identity is the indigo dot + broadcast.
   ──────────────────────────────────────────────────────────── */
:root {
  /* ── Studio status pips (page semantics, not system states) ── */
  --status-live:     var(--status-done);
  --status-building: var(--status-flight);

  /* Legacy ink numeric ramp → zinc primitives (burn-down: rename). */
  --ink-0:   #ffffff;
  --ink-50:  var(--zinc-50);
  --ink-100: var(--zinc-100);
  --ink-200: var(--zinc-200);
  --ink-300: var(--zinc-300);
  --ink-400: var(--zinc-400);
  --ink-500: var(--zinc-500);
  --ink-600: var(--zinc-600);
  --ink-700: var(--zinc-700);
  --ink-800: var(--zinc-800);
  --ink-900: var(--zinc-900);
  --ink-950: var(--zinc-950);

  /* Legacy surface + line + text aliases. */
  --paper-elev:  var(--paper);
  --bg-elev:     var(--paper);
  --bg-deep:     var(--paper-deep);
  --line:        var(--hairline);
  --line-soft:   var(--hairline-soft);
  --hairline-2:  var(--hairline-soft);
  --text-muted:  var(--ink-faint);
  --text-faint:  var(--ink-ghost);

  /* Legacy accent names → system accent. */
  --accent-deep: var(--accent-hover);
  --brand-glow:  var(--accent-glow);

  /* ── Event/pill semantics (venues/weddings — NOT brand accents) ── */
  --flight:             var(--status-flight);
  --pill-ontrack-bg:    #dcfce7; /* green-100 */
  --pill-ontrack-ink:   #16a34a; /* green-600 */
  --pill-attention-bg:  var(--status-flight-bg);
  --pill-attention-ink: #d97706; /* amber-600 */

  /* Legacy motion — v1 contract had five steps; 2.0 has four.
     moderate maps per-case to base/slow on the burn-down. */
  --motion-moderate: 320ms;
  --ease-in: cubic-bezier(0.4, 0, 1, 1); /* ds-allow — legacy exit easing, burn-down */

  /* Hero choreography springs — licensed; UI uses contract easings. */
  --spring-snap:  cubic-bezier(.2, .9, .2, 1.2);  /* ds-allow — hero choreography */
  --spring-soft:  cubic-bezier(.32, .72, 0, 1);   /* ds-allow — hero choreography */
  --spring-glide: cubic-bezier(.16, 1, .3, 1);    /* ds-allow — hero choreography */

  /* Legacy type + radii + shadow names → system equivalents. */
  --font-sans-stack: var(--font-sans);
  --font-mono-stack: var(--font-mono);
  --fs-display: var(--text-display);
  --fs-title:   var(--text-title);
  --fs-section: var(--text-section);
  --r-1:    var(--radius-sm);
  --r-2:    var(--radius-md);
  --r-3:    var(--radius-lg);
  --r-4:    14px;  /* off-system — burn-down to radius-lg */
  --r-5:    20px;  /* off-system — burn-down to radius-lg */
  --r-pill: var(--radius-pill);
  --shadow-1: var(--shadow-float);
  --shadow-2: var(--shadow-float);
  --shadow-3: var(--shadow-modal);
  --shadow-accent: 0 12px 32px -12px var(--accent-glow);
  --shadow-indigo: var(--shadow-accent);
}

/* ────────────────────────────────────────────────────────────
   Loading system tokens — LOADING_SYSTEM.md §1 + §4
   Canonical values. Copy verbatim to all 5 repos.
   These names and values are frozen — no divergence across suite.
   ──────────────────────────────────────────────────────────── */
:root {
  /* Loading field */
  --load-bg:               var(--paper, #ffffff);
  --load-dot-color:        var(--indigo, #4f46e5);
  --load-dot-size:         10px;   /* Hard px — immune to font-size inheritance pre-hydration. DESIGN.md §13.3 authority; supersedes D8's 12px (loading-review 2026-07-01: one boundary dot, 10px, matches the wordmark ceiling min(0.16em, 10px)). */
  --load-dot-radius:       50%;    /* Circle */
  --load-pulse-scale-min:  0.72;
  --load-pulse-scale-max:  1.0;
  --load-pulse-duration:   1.8s;   /* Calmer than tasks-dot (2.6s). Loading is suspended. */
  --load-pulse-easing:     cubic-bezier(.4, 0, .6, 1); /* ds-allow — LOADING_SYSTEM.md frozen value */
  --load-z:                9999;
  --load-fade-out:         120ms;
  --load-fade-easing:      ease-out;

  /* Shell + content reveal timing — LOADING_SYSTEM.md §4 */
  --shell-fade-in:         160ms;
  --shell-fade-easing:     ease-out;
  --content-fade-in:       200ms;
  --content-fade-easing:   cubic-bezier(.22, .61, .36, 1); /* ds-allow — LOADING_SYSTEM.md frozen value */
  --skeleton-max:          200ms;
  --stagger-content-item:  40ms;
}

/* ── Loading dot pulse animation — LOADING_SYSTEM.md §1 ──────────
   Copy-exact into each repo's globals.css. Class name is frozen:
   signal-loading-dot. Never use loading-dot, tasks-dot, etc. here. */
@keyframes signal-load-pulse {
  0%, 100% { transform: scale(var(--load-pulse-scale-min, 0.72)); opacity: 0.7; }
  50%       { transform: scale(var(--load-pulse-scale-max, 1.0));  opacity: 1; }
}

@media (prefers-reduced-motion: no-preference) {
  .signal-loading-dot {
    animation: signal-load-pulse var(--load-pulse-duration, 1.8s)
               var(--load-pulse-easing, cubic-bezier(.4, 0, .6, 1)) infinite; /* ds-allow — LOADING_SYSTEM.md frozen value */
  }
}

/* Reduced motion: static dot. Brand present. Motion absent. */
@media (prefers-reduced-motion: reduce) {
  .signal-loading-dot {
    animation: none;
    opacity: 0.85;
  }
}

/* ── Content well arrive animation (SuiteLoader) ─────────────────*/
@keyframes suite-content-arrive {
  from { opacity: 0; transform: translateY(4px); }
  to   { opacity: 1; transform: translateY(0); }
}

/* ── RW-5 Dot-morph — cross-origin pre-paint primitive ───────────
   CREATIVE_SPEC §3 · ARCH_SPEC §3
   Canonical block. Copy byte-identical into each repo's globals.css.
   Never modify individually — any change must propagate to all 5.

   Source-side: word collapses toward its period, dot lifts.
   Destination-side: dot-land fires if data-dot-landing="1" on <html>.
   Reduced-motion: no animation (rules below are no-preference only).
   ──────────────────────────────────────────────────────────────── */

/* Source-side — word collapses toward its period */
@keyframes word-collapse {
  0%   { opacity: 1; letter-spacing: -0.025em; }
  100% { opacity: 0; letter-spacing: -0.15em; }
}

/* Source-side — dot lifts after word collapses */
@keyframes dot-lift {
  0%   { transform: scale(1);    opacity: 1; }
  100% { transform: scale(1.25); opacity: 0.7; }
}

/* Destination-side — dot settles into the wordmark period */
@keyframes dot-land {
  0%   { transform: scale(1.5); opacity: 0.6; }
  100% { transform: scale(1);   opacity: 1; }
}

/* Apply destination animation only when sessionStorage flag was detected.
   Scoped to no-preference — reduced-motion gets static dot, no jump. */
@media (prefers-reduced-motion: no-preference) {
  [data-dot-landing="1"] .brand-mark .md,
  [data-dot-landing="1"] .brand-mark .pd {
    animation: dot-land 320ms cubic-bezier(.2, .9, .2, 1.2) forwards; /* ds-allow — RW-5 dot-morph canonical block */
  }
}

/* ────────────────────────────────────────────────────────────
   Tailwind theme bindings — system mappings (color-paper/ink/
   accent/status/indigo/zinc, font, text, spacing, radius-sm/md/
   lg/pill, shadow-float/modal, ease) come from the vendored
   src/ds/tailwind.css. This block carries only legacy names
   still used in TSX (burn-down path) and Studio extras.
   ──────────────────────────────────────────────────────────── */
@theme inline {
  --color-accent-deep: var(--accent-deep);

  --color-brand:      var(--brand);
  --color-brand-deep: var(--brand-deep);
  --color-brand-soft: var(--brand-soft);

  --color-ink-quiet: var(--ink-quiet);
  --color-ink-0:    var(--ink-0);
  --color-ink-50:   var(--ink-50);
  --color-ink-100:  var(--ink-100);
  --color-ink-200:  var(--ink-200);
  --color-ink-300:  var(--ink-300);
  --color-ink-400:  var(--ink-400);
  --color-ink-500:  var(--ink-500);
  --color-ink-600:  var(--ink-600);
  --color-ink-700:  var(--ink-700);
  --color-ink-800:  var(--ink-800);
  --color-ink-900:  var(--ink-900);
  --color-ink-950:  var(--ink-950);

  --color-bg:          var(--bg);
  --color-bg-elev:     var(--bg-elev);
  --color-bg-deep:     var(--bg-deep);
  --color-line:        var(--line);
  --color-line-soft:   var(--line-soft);
  --color-border:      var(--border);
  --color-border-soft: var(--border-soft);
  --color-text:        var(--text);
  --color-text-muted:  var(--text-muted);
  --color-text-faint:  var(--text-faint);

  --color-paper-elev:  var(--paper-elev);
  --color-indigo:      var(--indigo);
  --color-indigo-soft: var(--indigo-soft);
  --color-hairline-2:  var(--hairline-2);

  --color-status-live:     var(--status-live);
  --color-status-building: var(--status-building);

  --font-display: var(--font-sans);

  --radius-1:    var(--r-1);
  --radius-2:    var(--r-2);
  --radius-3:    var(--r-3);
  --radius-4:    var(--r-4);
  --radius-5:    var(--r-5);

  --shadow-1:      var(--shadow-1);
  --shadow-2:      var(--shadow-2);
  --shadow-3:      var(--shadow-3);
  --shadow-accent: var(--shadow-accent);
  --shadow-indigo: var(--shadow-indigo);
}

/* ────────────────────────────────────────────────────────────
   Base
   ──────────────────────────────────────────────────────────── */
html,
body {
  background: var(--bg);
  color: var(--ink);
  font-family: var(--font-sans-stack);
  font-feature-settings: "ss01", "cv11";
  -webkit-font-smoothing: antialiased;
  text-rendering: optimizeLegibility;
  /* Belt-and-braces guard against horizontal scroll on mobile.
     overflow-x: clip preserves position: sticky on descendants
     where overflow-x: hidden would break it. */
  overflow-x: clip;
}

/* RW-5: neutralise the Layer-0 pre-paint pseudo-elements once globals.css
   loads. The inline <style> in layout.tsx paints body::before (white field)
   and body::after (indigo dot) for the brief pre-stylesheet window.
   Once this stylesheet loads, the SuiteLoader div takes over. */
body::before,
body::after { content: none; }

::selection {
  background: var(--accent-soft);
  color: var(--ink-900);
}

/* ────────────────────────────────────────────────────────────
   Display + utility
   ──────────────────────────────────────────────────────────── */
.tight   { letter-spacing: -0.035em; }
.tighter { letter-spacing: -0.05em; }

.font-display {
  font-family: var(--font-display);
  letter-spacing: -0.04em;
  font-feature-settings: "ss01", "ss02", "cv11";
}

.h-display {
  font-size: var(--fs-display);
  line-height: 0.96;
  letter-spacing: -0.045em;
  font-weight: 600;
}
.h-title {
  font-size: var(--fs-title);
  line-height: 1.04;
  letter-spacing: -0.035em;
  font-weight: 600;
}
.h-section {
  font-size: var(--fs-section);
  line-height: 1.1;
  letter-spacing: -0.03em;
  font-weight: 600;
}

/* Mobile leading correction — display-tight desktop leading
   (0.96–1.04) lets descenders touch the next line's cap-height
   once clamp() shrinks the font on phones. Loosen below 640px so
   wrapped headlines breathe without losing the typographic register. */
@media (max-width: 640px) {
  /* !important required — hero h1 elements carry inline
     style={{ lineHeight: '0.96' }} that beats external rules. */
  .h-display { line-height: 1.04 !important; }
  .h-title   { line-height: 1.1  !important; }
  .h-section { line-height: 1.18 !important; }
  h1         { line-height: 1.08 !important; }
}

/* Pricing tier CTA — restrained inline-link on desktop, solid pill on mobile.
   Mobile needs a real button: this is the conversion action on the page. */
.pricing-tier-cta {
  align-self: stretch;
  margin-top: 28px;
  display: inline-flex;
  align-items: center;
  justify-content: center;
  min-height: 48px;
  padding: 12px 20px;
  background: var(--ink);
  color: var(--bg-elev);
  border-radius: var(--r-pill);
  font-weight: 500;
  font-size: 15px;
  letter-spacing: -0.005em;
  text-decoration: none;
  transition: opacity var(--motion-base) var(--ease-out), background var(--motion-base) var(--ease-out);
}
.pricing-tier-cta[data-recommended="true"] {
  background: var(--accent);
  color: #fff;
}
.pricing-tier-cta:hover { opacity: 0.9; }
@media (min-width: 640px) {
  .pricing-tier-cta {
    align-self: flex-start;
    min-height: 0;
    padding: 0 0 2px 0;
    background: transparent;
    color: var(--accent);
    border-radius: 0;
    border-bottom: 1px solid transparent;
    transition: border-color var(--motion-base) var(--ease-out);
  }
  .pricing-tier-cta[data-recommended="true"] {
    background: transparent;
    color: var(--accent);
  }
  .pricing-tier-cta:hover {
    opacity: 1;
    border-bottom-color: var(--accent);
  }
}

/* Marker-underline accent — indigo accent rule */
.marker {
  background: linear-gradient(
    120deg,
    transparent 0 6%,
    color-mix(in srgb, var(--accent) 28%, transparent) 6% 94%,
    transparent 94%
  );
  background-size: 100% 0.78em;
  background-position: 0 82%;
  background-repeat: no-repeat;
  padding: 0 0.05em;
}

/* ────────────────────────────────────────────────────────────
   Retired: .studio-mark + studio-dot-arrive/-pulse-slow.
   This was the pre-v1 "settle / breath in" wordmark gesture.
   Superseded by the canonical .brand-mark (Wordmark component),
   whose signal variant is the one-shot M·01 broadcast per
   DESIGN.md §5 — see brand-signal-emit / brand-signal-ring below.
   Removed 2026-05-16: zero DOM references (Wordmark renders
   .brand-mark everywhere — nav, footer, /brand); the dead block
   only risked the next agent copying retired vocab. The old
   "settle/breath" gesture is not part of suite design-system v1.
   ──────────────────────────────────────────────────────────── */

/* Legacy period class — kept as a no-op so old refs don't break. */
.studio-period { display: none; }

/* Tasks dot — inline pulse (adapted from Tasks design system) */
.tasks-dot {
  display: inline-block;
  position: relative;
  width: 0.28em;
  height: 0.28em;
  background-color: #4f46e5;
  border-radius: 50%;
  margin-left: 0.1em;
  transform: translateY(-0.36em);
  /* No box-shadow glow — gesture is transform/opacity only (calm register) */
  animation: tasks-dot-pulse 2.6s cubic-bezier(.16, 1, .3, 1) infinite;
}
.tasks-dot::before {
  content: "";
  position: absolute;
  inset: -1px;
  border: 1.5px solid #4f46e5;
  border-radius: 50%;
  opacity: 0;
  animation: tasks-dot-emit 2.6s cubic-bezier(.16, 1, .3, 1) infinite;
}
@keyframes tasks-dot-pulse {
  0%, 60%, 100% { transform: translateY(-0.36em) scale(1); }
  70%           { transform: translateY(-0.36em) scale(1.25); }
  80%           { transform: translateY(-0.36em) scale(1); }
}
@keyframes tasks-dot-emit {
  0%, 60% { opacity: 0; transform: scale(0.8); }
  68%     { opacity: 1; transform: scale(1); }
  100%    { opacity: 0; transform: scale(2.6); }
}

/* ────────────────────────────────────────────────────────────
   Notes wordmark — underline-writes-itself gesture
   The act of capture made visible. A single indigo line draws
   left-to-right under "notes" on mount and settles. Stops
   short of the dot — the dot is the destination, the line is
   the path. Plays once. Quieter than Tasks's pulse (live),
   quieter than Roadmap's slide (motion), louder than
   Analytics's static dot (ambient). Each of the four products
   carries its own gesture inside one shared mark grammar.
   ──────────────────────────────────────────────────────────── */
@keyframes notes-mark-write {
  from { transform: scaleX(0); }
  to   { transform: scaleX(1); }
}
.notes-mark {
  position: relative;
  display: inline-block;
}
.notes-mark::after {
  content: "";
  position: absolute;
  left: 0;
  right: 0.34em;
  bottom: -0.08em;
  height: 0.05em;
  background-color: var(--brand);
  border-radius: 1px;
  transform-origin: left center;
  transform: scaleX(0);
  animation: notes-mark-write 0.7s var(--spring-glide) 0.15s forwards;
}

/* ── Animations ───────────────────────────────────────────── */
@keyframes rise {
  0%   { opacity: 0; transform: translateY(14px); }
  100% { opacity: 1; transform: translateY(0); }
}
.rise {
  animation: rise 0.85s var(--spring-glide) both;
}

@keyframes shine {
  0%   { background-position: 200% center; }
  100% { background-position: -100% center; }
}
.wordmark {
  background: linear-gradient(
    110deg,
    var(--ink-900) 30%,
    var(--ink-600) 50%,
    var(--ink-900) 70%
  );
  background-size: 300% auto;
  -webkit-background-clip: text;
  -webkit-text-fill-color: transparent;
  background-clip: text;
}
.wordmark-hover:hover .wordmark {
  animation: shine 3s linear infinite;
}

/* ── Utilities ────────────────────────────────────────────── */
.lift {
  transition:
    transform var(--motion-moderate) var(--spring-glide),
    box-shadow var(--motion-moderate) var(--spring-glide);
}
.lift:hover {
  transform: translateY(-2px);
  box-shadow: var(--shadow-2);
}

:focus:not(:focus-visible) { outline: none; }
:focus-visible {
  outline: 2px solid var(--accent);
  outline-offset: 2px;
  border-radius: 2px;
}

/* WCAG 2.4.11 — sticky nav is 56px (h-14). Section anchor targets
   get scroll-margin-top so keyboard focus + skip-links land clear. */
[id="timeline"],
[id="tasks"],
[id="notes"],
[id="signal"] {
  scroll-margin-top: 72px;
}

/* ── Eyebrow tracking token ───────────────────────────────── */
:root {
  --tracking-eyebrow: 0.14em;
  /* --indigo-600 now comes from src/ds/tokens.css */
}

/* ── Product card accent-rule hover ─────────────────────────── */
/* A 1px indigo accent line that expands from 0 → 100% at card bottom */
.product-card {
  position: relative;
  overflow: hidden;
}
.product-card::after {
  content: "";
  position: absolute;
  bottom: 0;
  left: 0;
  height: 1px;
  width: 0;
  background: var(--accent);
  transition: width var(--motion-slow) var(--spring-glide);
}
.product-card:hover::after {
  width: 100%;
}

/* ── Manifesto rule sweep ─────────────────────────────────────
   The one moment Studio's indigo accent earns volume. A 96px
   accent rule above the manifesto title that sweeps from 0
   width as the section enters the viewport. Uses the modern
   CSS scroll-driven animations API; in older browsers, the
   rule sits at its full width with no animation.
   ──────────────────────────────────────────────────────────── */
.manifesto-rule {
  display: block;
  height: 2px;
  width: 96px;
  background: var(--accent);
  border-radius: 999px;
  margin-bottom: 22px;
  /* No glow — the accent color does the work; restraint register */
}

@supports (animation-timeline: view()) {
  .manifesto-rule {
    width: 0;
    animation: rule-sweep linear both;
    animation-timeline: view();
    animation-range: entry 5% cover 30%;
  }
}

@keyframes rule-sweep {
  from { width: 0; }
  to   { width: 96px; }
}

/* ── Reduced motion — Motion Contract v1 ─────────────────── */
/* Token override: collapse all suite durations to near-zero.
   The universal * rule below remains as belt-and-braces for any
   value that isn't referenced via a token. */
@media (prefers-reduced-motion: reduce) {
  /* System motion tokens are zeroed by src/ds/tokens.css; only the
     repo-local legacy duration needs handling here. */
  :root {
    --motion-moderate: 0.01ms;
  }
  /* Ensure reveal classes are immediately visible, no JS needed */
  .reveal,
  .reveal-subhead,
  .reveal-house-mark,
  .reveal-stack .stack-row,
  .reveal-product-row .position,
  .reveal-product-row .mark,
  .reveal-product-row .essence,
  .reveal-product-row .meta {
    opacity: 1 !important;
    transform: none !important;
    translate: none !important;
    animation: none !important;
    clip-path: none !important;
  }
  *,
  *::before,
  *::after {
    animation-duration: 0.01ms !important;
    animation-iteration-count: 1 !important;
    transition-duration: 0.01ms !important;
  }
  /* Ensure the accent rule is visible at full width when motion is reduced. */
  .manifesto-rule {
    width: 96px !important;
  }
}

/* ── CSS scroll-driven reveal — baseline-visible, no JS ─────
   Applied to secondary sections below the hero. The .reveal
   class is safe to use server-side: opacity:1 / translate:none
   is the default, so no-JS / reduced-motion users always see
   content. The scroll-driven animation is progressive enhancement
   gated to @supports + no-preference. Single-axis only.
   ──────────────────────────────────────────────────────────── */
@media (prefers-reduced-motion: no-preference) {
  @supports (animation-timeline: view()) {
    .reveal {
      animation: reveal-fade var(--motion-slow) var(--ease-out) both;
      animation-timeline: view();
      animation-range: entry 0% entry 35%;
    }
  }
}
@keyframes reveal-fade {
  from { opacity: 0; translate: 0 12px; }
  to   { opacity: 1; translate: 0 0; }
}

/* ════════════════════════════════════════════════════════════
   Reveal · landing page
   The choreographed entrance + scroll-triggered post-reveal +
   typographic-poster product rows + editorial closing block.
   Motion is owned by RevealEngine (client component) which targets
   the class names below. CSS-only fallback for reduced-motion at
   the bottom.
   ════════════════════════════════════════════════════════════ */

/* Reveal-specific accent-soft for the marker highlight */
:root {
  --reveal-accent-soft: color-mix(in srgb, var(--accent) 18%, transparent);
  --reveal-ease-glide: cubic-bezier(.16, 1, .3, 1);
  --reveal-ease-mass:  cubic-bezier(.34, 1.45, .64, 1);
}

/* ── Hero ─────────────────────────────────────────────────────── */
/* Walkover #1 (2026-06-07): loader demoted to ~28vh prelude above the
   hero (reveal-loading-showcase). The hero itself drops its min-height
   so the proposition (H1 + subhead + product stack) finishes inside the
   first viewport without scroll. */
.reveal-hero {
  position: relative;
  min-height: clamp(520px, 62dvh, 720px);
  display: flex;
  flex-direction: column;
  align-items: center;
  justify-content: center;
  padding: 16px 32px 76px;
}
.reveal-gold-rule {
  width: 0;
  height: 1px;
  background: var(--accent);
  margin: 0 auto 30px;
}

/* ── Launch-note pill: a quiet sheen (recut 2026-07-07) ─────────────────────
   The previous treatment swept a blurred conic arc around the pill's edge and
   breathed a glow underneath. Cut: light belongs on the material, not around
   it. Now one soft band of indigo light crosses the pill's face, clipped by
   the pill itself. It travels for under two seconds, then the pill rests for
   the remainder of the cycle. Transform-only, nothing painted outside the
   shape, no layout shift. Reduced motion sees the plain pill. */
.reveal-launch-note {
  position: relative;
  overflow: hidden;
  isolation: isolate;
}
.reveal-launch-note::after {
  content: "";
  position: absolute;
  inset: 0;
  pointer-events: none;
  background: linear-gradient(
    105deg,
    transparent 34%,
    color-mix(in srgb, var(--accent) 6%, transparent) 46%,
    color-mix(in srgb, var(--accent) 11%, transparent) 50%,
    color-mix(in srgb, var(--accent) 6%, transparent) 54%,
    transparent 66%
  );
  transform: translateX(-100%);
  animation: launch-sheen 7.5s ease-in-out infinite;
}
@keyframes launch-sheen {
  0%   { transform: translateX(-100%); }
  24%  { transform: translateX(100%); }
  100% { transform: translateX(100%); }
}
@media (prefers-reduced-motion: reduce) {
  .reveal-launch-note::after { animation: none; transform: translateX(-100%); }
}
.reveal-headline {
  /* Sized as a headline, not a hero wall — was clamp(44,104) which
     read at full hero scale and crowded the page. This sits a clear
     step below the product-row wordmarks (clamp 56–96) so the
     hierarchy is headline → products, not headline == products. */
  font-size: clamp(34px, 5.1vw, 66px);
  line-height: 1.05;
  letter-spacing: -0.04em;
  font-weight: 600;
  color: var(--ink-950);
  margin: 0 0 22px;
  text-align: center;
  max-width: 920px;
}
.reveal-headline .line {
  display: block;
}
.reveal-headline .line-2,
.reveal-headline .line-3 {
  margin-top: 0.08em;
}
.reveal-headline .word {
  display: inline-block;
  overflow: hidden;
  vertical-align: top;
  line-height: 1.04;
  padding-bottom: 0.06em;
}
.reveal-headline .word-inner {
  display: inline-block;
  /* Server-rendered visible by default. The GSAP entrance previously
     started these at translateY(110%) but the headline is the first
     thing the visitor sees — the ~800ms blank-flash during the GSAP
     dynamic import cost more than the entrance gained. RevealEngine
     no longer animates the headline; the subhead typewriter + downstream
     scroll-triggered choreography carry the page's motion. */
  transform: translateY(0);
  will-change: auto;
}
.reveal-headline .word-inner.em {
  /* R11 fix 2026-05-17: clamp the highlight band to an explicit 0.78em tile
     at 82% position — same contract as .marker. Before this fix, no
     background-size was set, so at display heading scale (~88px) the band
     was ~38% × 88px = ~33px tall, reading as a full-height selection rect.
     The 0.78em tile is always typographic-scale regardless of font-size. */
  background: linear-gradient(
    to right,
    var(--reveal-accent-soft),
    var(--reveal-accent-soft)
  );
  background-size: 100% 0.78em;
  background-position: 0 82%;
  background-repeat: no-repeat;
  padding: 0 0.06em;
}
.reveal-subhead {
  font-size: clamp(16px, 1.4vw, 19px);
  color: var(--ink-600);
  margin: 0 0 30px;
  text-align: center;
  letter-spacing: -0.005em;
  /* JS-progressive: GSAP hijacks this to opacity:0/translateY(8px) on its
     synchronous first tick (reveal-engine.tsx:88). The default is visible
     so slow/no-JS users always see the subhead. */
  opacity: 1;
  transform: none;
  will-change: transform, opacity;
}
.reveal-subhead .em {
  color: var(--ink-900);
  font-weight: 500;
}

/* ── Live-doc caret on the typewriter sub-hero ────────────────── */
/* Legacy cursor style for any reveal text that still opts into it.
   The homepage hero no longer types the subhead. */
.reveal-cursor {
  display: inline-block;
  width: 2px;
  height: 1.05em;
  margin-left: 3px;
  background: var(--ink-900);
  vertical-align: -0.16em;
  animation: reveal-cursor-blink 1.06s steps(2, jump-none) infinite;
  will-change: opacity;
}
@keyframes reveal-cursor-blink {
  to { opacity: 0; }
}
@media (prefers-reduced-motion: reduce) {
  .reveal-cursor {
    animation: none;
    opacity: 1;
  }
}

/* ── Four-product stack ───────────────────────────────────────── */
.reveal-conductor {
  display: flex;
  flex-direction: column;
  align-items: center;
  gap: 18px;
}
.reveal-house-mark {
  display: inline-flex;
  align-items: baseline;
  gap: 0;
  color: var(--ink-700);
  font-size: clamp(15px, 1.45vw, 19px);
  font-weight: 500;
  letter-spacing: -0.026em;
  line-height: 1;
  opacity: 1;
  transform: none;
  will-change: transform, opacity;
}
.reveal-house-mark .house-word {
  white-space: nowrap;
}
.reveal-house-mark .house-dot {
  position: relative;
  display: inline-block;
  width: 0.2em;
  height: 0.2em;
  margin-left: 0.08em;
  border-radius: 50%;
  background: var(--indigo-600);
  transform: translateY(-0.04em);
  transform-origin: center;
}
.reveal-house-mark .house-dot::before {
  content: "";
  position: absolute;
  inset: -9px;
  border: 1px solid var(--indigo-600);
  border-radius: 999px;
  opacity: 0;
  transform: scale(0.72);
  transform-origin: center;
}
.reveal-house-mark.broadcast .house-dot {
  animation: reveal-house-dot 820ms cubic-bezier(.22,.7,.2,1) 1 both;
}
.reveal-house-mark.broadcast .house-dot::before {
  animation: reveal-house-broadcast 820ms cubic-bezier(.22,.7,.2,1) 1 both;
}
.reveal-house-mark.settled .house-dot {
  opacity: 1;
  transform: translateY(-0.04em) scale(1);
}
@keyframes reveal-house-dot {
  0%, 100% { transform: translateY(-0.04em) scale(1); }
  38%      { transform: translateY(-0.04em) scale(1.28); }
}
@keyframes reveal-house-broadcast {
  0%   { opacity: 0.45; transform: scale(0.72); }
  72%  { opacity: 0.18; transform: scale(1.9); }
  100% { opacity: 0; transform: scale(2.15); }
}

.reveal-stack {
  /* Horizontal product row (was a vertical column). Reads as one
     line of products, assembles left-to-right via RevealEngine. */
  display: flex;
  flex-direction: row;
  flex-wrap: wrap;
  justify-content: center;
  gap: 4px 28px;
  align-items: baseline;
  line-height: 1;
}
.reveal-stack .stack-row {
  /* JS-progressive: GSAP hijacks to opacity:0/translateX(-32px) on first
     visit (reveal-engine.tsx:179). Default visible for no-JS. */
  opacity: 1;
  transform: none;
  will-change: transform, opacity;
  text-decoration: none;
  color: inherit;
  padding: 7px 14px;
  border-radius: 6px;
  transition: background var(--motion-base) var(--ease-out);
  flex-shrink: 0;
}
.reveal-stack .stack-row:hover {
  background: color-mix(in srgb, var(--ink-900) 3%, transparent);
}
.reveal-stack .mark {
  /* Lighter than the headline now — this is a product nav row, not
     four headlines. Was clamp(28,48). */
  font-size: clamp(22px, 2.9vw, 38px);
  line-height: 0.96;
  font-weight: 600;
  letter-spacing: -0.038em;
  color: var(--ink-950);
  display: inline-flex;
  align-items: baseline;
  flex-wrap: nowrap;
  gap: 0;
  white-space: nowrap;
}
.reveal-stack .word {
  position: relative;
  display: inline-block;
  white-space: nowrap;
}
.reveal-stack .dot {
  width: 0.13em;
  height: 0.13em;
  border-radius: 50%;
  background: var(--indigo-600);
  margin-left: 0.06em;
  transform: translateY(-0.04em);
  display: inline-block;
  position: relative;
}
.reveal-stack .stack-row.settled .dot {
  opacity: 1;
  animation: none;
  transform: translateY(-0.04em) scale(1);
}

/* Per-product brand gestures in the hero stack. The conductor fires
   each dot once in work order, then RevealEngine swaps the row into
   .settled so the final hero state rests without idle animation. */

/* tasks · M·02 pulse */
.reveal-stack .stack-row[data-key="tasks"] .dot {
  opacity: 1;
  transform: translateY(-0.04em) scale(1);
  transition: opacity var(--motion-slow) var(--ease-out);
  transform-origin: center;
}
.reveal-stack .stack-row[data-key="tasks"].fire .dot {
  opacity: 1;
  animation: reveal-tasks-pulse 900ms ease-in-out 1 both;
}
@keyframes reveal-tasks-pulse {
  0%, 100% { transform: translateY(-0.04em) scale(1); }
  38%      { transform: translateY(-0.04em) scale(1.22); }
  70%      { transform: translateY(-0.04em) scale(1.08); }
}

/* roadmap · M·03 sweep */
.reveal-stack .stack-row[data-key="timeline"] .dot {
  opacity: 1;
  transition: opacity var(--motion-slow) var(--ease-out);
  transform-origin: center;
}
.reveal-stack .stack-row[data-key="timeline"].fire .dot {
  opacity: 1;
  animation: reveal-timeline-pass 1080ms cubic-bezier(.22,.7,.2,1) 1 both;
}
@keyframes reveal-timeline-pass {
  0%   { transform: translateY(-0.04em) translateX(0); opacity: 1; }
  58%  { transform: translateY(-0.04em) translateX(5px); opacity: 1; }
  68%  { transform: translateY(-0.04em) translateX(5px); opacity: 0; }
  78%  { transform: translateY(-0.04em) translateX(0); opacity: 0; }
  100% { transform: translateY(-0.04em) translateX(0); opacity: 1; }
}

/* analytics · M·04 tick — discrete sample JUMPS, never a glide.
   steps(1,end) + 3.6s mirrors the live Analytics product exactly
   (signal-dot-tick). The old 2.4s scaleY squash read as a
   blink/pulse — the wrong gesture. Tick = the dot snaps between
   discrete Y samples and holds. Canon: DESIGN.md §5. */
.reveal-stack .stack-row[data-key="signal"] .dot {
  opacity: 1;
  transition: opacity var(--motion-slow) var(--ease-out);
  transform-origin: center;
}
.reveal-stack .stack-row[data-key="signal"].fire .dot {
  opacity: 1;
  animation: reveal-signal-tick 860ms steps(1, end) 1 both;
}
@keyframes reveal-signal-tick {
  0%   { transform: translateY(-0.04em); }
  25%  { transform: translateY(-0.16em); }
  50%  { transform: translateY(0.02em); }
  75%  { transform: translateY(-0.12em); }
  100% { transform: translateY(-0.04em); }
}

/* notes · M·05 caret */
.reveal-stack .stack-row[data-key="notes"] .dot {
  opacity: 1;
  transition: opacity var(--motion-slow) var(--ease-out);
  transform-origin: center;
}
.reveal-stack .stack-row[data-key="notes"].fire .dot {
  opacity: 1;
  animation: reveal-notes-caret 820ms steps(1,end) 1 both;
}
@keyframes reveal-notes-caret {
  0%, 100% { transform: translateY(-0.04em) scale(1); opacity: 1; }
  50%      { transform: translateY(-0.04em) scale(1.05); opacity: 0.7; }
}


/* ── Wedding wedge ───────────────────────────────────────────── */
/* Walkover #4 (Da Vinci): one hairline band above the loader. The
   umbrella stays neutral; the wedge is visible at the front door
   for the wedding audience that brought the page its first revenue
   path. Server-rendered, zero JS, reduced-motion-safe. */
.reveal-wedge {
  border-top: 1px solid var(--ink-200);
  border-bottom: 1px solid var(--ink-200);
  background: var(--ink-50, #fafaf8);
}
.reveal-wedge-inner {
  max-width: 1080px;
  margin: 0 auto;
  padding: 14px 32px;
  display: flex;
  align-items: center;
  gap: 12px;
  flex-wrap: wrap;
  font-size: 13px;
  line-height: 1.45;
  color: var(--ink-700);
}
.reveal-wedge-eyebrow {
  font-family: var(--font-mono-stack);
  font-size: 11px;
  letter-spacing: 0.14em;
  text-transform: uppercase;
  color: var(--ink-600);
  display: inline-flex;
  align-items: center;
  gap: 8px;
  white-space: nowrap;
}
.reveal-wedge-dot {
  width: 0.5em;
  height: 0.5em;
  border-radius: 50%;
  background: var(--accent);
  display: inline-block;
}
.reveal-wedge-sep {
  color: var(--ink-400);
}
.reveal-wedge-line {
  color: var(--ink-800);
  text-wrap: pretty;
  flex: 1 1 auto;
  min-width: 240px;
}
.reveal-wedge-link {
  color: var(--ink-950);
  font-weight: 500;
  text-decoration: none;
  border-bottom: 1px solid var(--ink-300);
  transition: border-color 160ms ease, color 160ms ease;
  white-space: nowrap;
}
.reveal-wedge-link:hover {
  color: var(--accent);
  border-bottom-color: var(--accent);
}
.reveal-wedge-link .cta-arrow {
  display: inline-block;
  transition: transform 160ms ease;
}
.reveal-wedge-link:hover .cta-arrow {
  transform: translateX(2px);
}
@media (max-width: 640px) {
  .reveal-wedge-inner {
    padding: 12px 20px;
    gap: 8px;
  }
  .reveal-wedge-sep {
    display: none;
  }
  .reveal-wedge-line {
    flex-basis: 100%;
    order: 2;
  }
  .reveal-wedge-link {
    order: 3;
  }
}

/* ── Manifesto ───────────────────────────────────────────────── */
/* Walkover #10 (2026-06-07): vertical rhythm compressed ~30% (was
   144/144 → 104/104) to tighten the page after the hero demotion. */
.reveal-manifesto {
  max-width: 760px;
  margin: 0 auto;
  padding: 104px 32px 104px;
}
.reveal-manifesto-eyebrow {
  font-family: var(--font-mono-stack);
  font-size: 11px;
  color: var(--ink-500);
  letter-spacing: 0.14em;
  text-transform: uppercase;
  margin-bottom: 28px;
}
.reveal-manifesto-eyebrow .gold {
  color: var(--accent);
}
.reveal-manifesto-h2 {
  font-size: clamp(28px, 3.4vw, 44px);
  line-height: 1.12;
  letter-spacing: -0.03em;
  font-weight: 600;
  color: var(--ink-950);
  margin: 0 0 28px;
  text-wrap: balance;
}
.reveal-manifesto-h2 .em {
  background: linear-gradient(transparent 60%, var(--reveal-accent-soft) 60%);
  padding: 0 0.06em;
}
.reveal-manifesto-body {
  font-size: 19px;
  line-height: 1.55;
  color: var(--ink-700);
  margin: 0 0 22px;
  text-wrap: pretty;
}
.reveal-manifesto-body strong {
  color: var(--ink-950);
  font-weight: 600;
}

/* ── Proof beat ──────────────────────────────────────────────── */
/* The one concrete, dated scene on the front door. Same editorial
   register as the manifesto — type only, no UI chrome. Server-
   rendered visible; RevealEngine adds the scroll-in only when motion
   is allowed (reduced-motion + no-JS read the static scene). */
.reveal-proof {
  max-width: 760px;
  margin: 0 auto;
  padding: 96px 32px 144px;
}
.reveal-proof-eyebrow {
  font-family: var(--font-mono-stack);
  font-size: 11px;
  color: var(--ink-500);
  letter-spacing: 0.14em;
  text-transform: uppercase;
  margin-bottom: 28px;
}
.reveal-proof-eyebrow .gold {
  color: var(--accent);
}
.reveal-proof-h2 {
  font-size: clamp(28px, 3.4vw, 44px);
  line-height: 1.12;
  letter-spacing: -0.03em;
  font-weight: 600;
  color: var(--ink-950);
  margin: 0 0 48px;
  text-wrap: balance;
}
.reveal-proof-h2 .em {
  background: linear-gradient(transparent 60%, var(--reveal-accent-soft) 60%);
  padding: 0 0.06em;
}
.reveal-proof-scene {
  list-style: none;
  margin: 0 0 40px;
  padding: 0;
}
.reveal-proof-line {
  display: grid;
  grid-template-columns: 132px 1fr;
  gap: 28px;
  padding: 24px 0;
  border-top: 1px solid var(--ink-200);
}
.reveal-proof-line:last-child {
  border-bottom: 1px solid var(--ink-200);
}
.reveal-proof-line .when {
  font-family: var(--font-mono-stack);
  font-size: 11px;
  color: var(--ink-500);
  letter-spacing: 0.12em;
  text-transform: uppercase;
  padding-top: 0.35em;
}
.reveal-proof-line .what {
  font-size: clamp(15px, 1.1vw, 17px);
  line-height: 1.6;
  color: var(--ink-700);
  text-wrap: pretty;
}
.reveal-proof-outro {
  font-size: 15px;
  line-height: 1.65;
  color: var(--ink-600);
  margin: 0;
  text-wrap: pretty;
}
.reveal-proof-link {
  color: var(--ink-900);
  text-decoration: none;
  border-bottom: 1px solid var(--ink-300);
  padding-bottom: 1px;
  white-space: nowrap;
  transition: color var(--motion-fast) var(--ease-out), border-color var(--motion-fast) var(--ease-out);
}
.reveal-proof-link:hover {
  color: var(--accent);
  border-color: var(--accent);
}

/* ── Product detail rows ─────────────────────────────────────── */
.reveal-products {
  max-width: 1080px;
  margin: 0 auto;
  padding: 48px 32px 96px;
}
.reveal-products-head {
  font-family: var(--font-mono-stack);
  font-size: 11px;
  color: var(--ink-500);
  letter-spacing: 0.14em;
  text-transform: uppercase;
  margin-bottom: 28px;
  display: flex;
  align-items: center;
  gap: 12px;
}
.reveal-products-head .gold {
  color: var(--accent);
}
.reveal-products-head::after {
  content: '';
  flex: 1;
  height: 1px;
  background: var(--ink-200);
}
.reveal-products-connective {
  font-size: 15px;
  line-height: 1.65;
  color: var(--ink-500);
  max-width: 560px;
  margin: -10px 0 28px;
}

.reveal-product-row {
  display: grid;
  grid-template-columns: minmax(0, 1.15fr) minmax(0, 0.85fr);
  gap: 64px;
  padding: 40px 0;
  border-top: 1px solid var(--ink-200);
  align-items: baseline;
  text-decoration: none;
  color: inherit;
  transition: background var(--motion-base) var(--ease-out);
}
.reveal-product-row:last-child {
  border-bottom: 1px solid var(--ink-200);
}
.reveal-product-row:hover {
  background: color-mix(in srgb, var(--ink-900) 2%, transparent);
}
.reveal-product-row .left {
  display: flex;
  flex-direction: column;
  gap: 18px;
}
.reveal-product-row .position {
  font-family: var(--font-mono-stack);
  font-size: 11px;
  color: var(--ink-500);
  letter-spacing: 0.14em;
  text-transform: uppercase;
}
.reveal-product-row .mark {
  font-size: clamp(56px, 7vw, 96px);
  line-height: 0.96;
  font-weight: 600;
  letter-spacing: -0.04em;
  color: var(--ink-950);
  display: inline-flex;
  align-items: baseline;
  flex-wrap: nowrap;
  white-space: nowrap;
  /* The settled entrance state keeps `clip-path: inset(0 0 0 0)` on the
     mark (so Safari's L→R wipe has somewhere to land). With line-height
     0.96 that box stops at the baseline, clipping the descender of "g" in
     "signal" (and any future descender). Bottom padding extends the
     clipped border-box below the baseline so descenders render in full;
     baseline alignment of the row is unaffected. (2026-06-16) */
  padding-bottom: 0.14em;
}
.reveal-product-row .mark .word {
  position: relative;
  display: inline-block;
  white-space: nowrap;
}
/* (2026-06-16) The analytics row's wordmark is now the single word
   "signal" (6 chars — shorter than "timeline"), so the legacy "Daily
   Signal is two words" downscale no longer applies. Removing it lets
   signal render at the same clamp(56,7vw,96) scale as its siblings,
   fixing the row reading visibly smaller than notes / tasks / timeline. */
.reveal-product-row .mark .dot {
  width: 0.14em;
  height: 0.14em;
  border-radius: 50%;
  background: var(--indigo-600);
  margin-left: 0.06em;
  transform: translateY(-0.04em);
  display: inline-block;
  position: relative;
}

/* Settled-state product gestures (post-reveal product rows) —
   aligned to suite design-system v1 motion catalogue. Same gestures
   as the hero stack above; just at the larger row size. */
.reveal-product-row[data-key="tasks"] .mark .dot {
  transform-origin: center;
  animation: reveal-tasks-pulse 2.6s ease-in-out infinite;
}
.reveal-product-row[data-key="timeline"] .mark .dot {
  transform-origin: center;
  animation: reveal-timeline-pass 5.4s cubic-bezier(.22,.7,.2,1) infinite;
}
.reveal-product-row[data-key="signal"] .mark .dot {
  transform-origin: center;
  /* tick = discrete sample jumps. Shares the now-canon
     reveal-signal-tick keyframe; must run it at 3.6s steps(1,end)
     like the hero stack + live Analytics product, not a 2.4s glide
     (which would smear between the discrete samples). DESIGN.md §5. */
  animation: reveal-signal-tick 3.6s steps(1, end) infinite;
}
.reveal-product-row[data-key="notes"] .mark .dot {
  transform-origin: center;
  animation: reveal-notes-caret 1.1s steps(1,end) infinite;
}


.reveal-product-row .right {
  display: flex;
  flex-direction: column;
  gap: 14px;
}
.reveal-product-row .essence {
  font-size: 22px;
  line-height: 1.4;
  color: var(--ink-900);
  margin: 0;
  letter-spacing: -0.02em;
  font-weight: 500;
  text-wrap: pretty;
}
/* The meta row is an editorial index line, not a row of chips (recut
   2026-07-07, review issues 01–03): one hairline above, mono uppercase
   terms separated by middots, the availability dot on the first term,
   the open-CTA holding the right edge. Hairlines do the work of boxes. */
.reveal-product-row .meta {
  display: flex;
  flex-wrap: wrap;
  row-gap: 6px;
  align-items: baseline;
  border-top: 1px solid var(--border);
  padding-top: 11px;
  margin-top: 14px;
  font-family: var(--font-mono-stack);
  font-size: 10.5px;
  color: var(--ink-500);
  letter-spacing: 0.1em;
  text-transform: uppercase;
  transition: border-color var(--motion-base) var(--ease-out);
}
/* On row hover the hairline firms from faint to defined — quiet feedback. */
.reveal-product-row:hover .meta {
  border-color: var(--ink-300);
}
.reveal-product-row .meta .term {
  display: inline-flex;
  align-items: center;
  gap: 7px;
  color: var(--ink-600);
  line-height: 1.5;
  white-space: nowrap;
  transition: color var(--motion-base) var(--ease-out);
}
.reveal-product-row .meta .term + .term::before {
  content: "·";
  margin: 0 12px;
  color: var(--ink-300);
}
/* The first term carries the indigo availability dot — the same status
   grammar as the green "Live now" dot on /pricing. */
.reveal-product-row .meta .term:first-child::after {
  content: "";
  order: -1;
  width: 5px;
  height: 5px;
  border-radius: 50%;
  background: var(--indigo-600);
  flex: 0 0 auto;
}
.reveal-product-row:hover .meta .term {
  color: var(--ink-700);
}
.reveal-product-row .meta .term.soon {
  color: var(--accent-deep);
}
.reveal-product-row .meta .open {
  display: inline-flex;
  align-items: baseline;
  flex: 0 0 auto;
  gap: 0.45em;
  margin-left: auto;
  color: var(--ink-700);
  white-space: nowrap;
  transition: transform var(--motion-moderate) var(--spring-glide), color var(--motion-base) var(--ease-out);
}
.reveal-product-row:hover .meta .open {
  color: var(--ink-950);
  transform: translateX(4px);
}

/* Per-character hover lift — FUTURE THREE pattern, gated to fine pointers */
@media (hover: hover) and (pointer: fine) {
  .reveal-product-row .mark .word .char {
    display: inline-block;
    white-space: nowrap;
    transition: transform var(--motion-moderate) var(--reveal-ease-mass) 0s;
    will-change: transform;
  }
  .reveal-product-row .mark .word .char.char-space {
    width: 0.22em;
  }
  .reveal-product-row:hover .mark .word .char {
    transform: translateY(-3px);
    transition-delay: calc(var(--ci) * 0.018s);
  }
}

/* ── Product rows · motion-graphics scroll entrance ──────────────
   Each of the four poster rows choreographs itself as it scrolls
   into view: the mono eyebrow leads, the giant wordmark types on
   with a left→right clip wipe, the essence slides in from the
   right, the meta settles last. Scroll-driven (no JS), gated to
   no-preference + animation-timeline support. Baseline (no support
   / no-JS) and reduced-motion: every part is visible with no
   animation — the .reveal class on the row + the reduce block
   above are the fallback. ──────────────────────────────────────── */
/* Cross-browser entrance: an IntersectionObserver (reveal-engine.tsx)
   adds .in to each row once, on first scroll into view. Safari has no
   animation-timeline:view(), so the choreography rides CSS transitions
   toggled by .in — works everywhere. Reduced-motion users are
   force-shown by the block above; no-JS users keep the .reveal default
   (opacity:1). Choreography per ds-animation-principles: eyebrow leads,
   wordmark clip-wipes L→R, essence slides from +x, meta settles last;
   ease-out, ~60ms stagger, total under 700ms, single direction. The
   perpetual per-product dot gesture (pulse/sweep/tick/caret) is on
   .dot and is untouched — only the parent .mark enters. */
@media (prefers-reduced-motion: no-preference) {
  /* The row no longer fades as one block — its children carry the
     choreography. Two-class selector outspecifies the generic .reveal. */
  .reveal-product-row.reveal {
    animation: none;
    opacity: 1;
    translate: none;
  }
  .reveal-product-row .position,
  .reveal-product-row .mark,
  .reveal-product-row .essence,
  .reveal-product-row .meta {
    opacity: 1;
    transform: none;
    transition:
      opacity var(--motion-slow) var(--reveal-ease-glide),
      transform var(--motion-slow) var(--reveal-ease-glide),
      clip-path 560ms var(--reveal-ease-glide);
    will-change: opacity, transform;
  }
  .reveal-product-row .mark { clip-path: inset(0 0 0 0); }

  /* Hidden until the observer adds .in (one-shot per row). */
  .reveal-product-row:not(.in) .position { opacity: 0; transform: translateY(9px); }
  .reveal-product-row:not(.in) .mark {
    opacity: 0;
    transform: translateX(-14px);
    clip-path: inset(0 100% 0 0);
  }
  .reveal-product-row:not(.in) .essence { opacity: 0; transform: translateX(28px); }
  .reveal-product-row:not(.in) .meta { opacity: 0; transform: translateY(11px); }

  /* Stagger: eyebrow 0 → mark 60 → essence 130 → meta 190ms.
     Max finish ≈ 190 + 480 (motion-slow) = 670ms. */
  .reveal-product-row.in .position { transition-delay: 0ms; }
  .reveal-product-row.in .mark { transition-delay: 60ms; }
  .reveal-product-row.in .essence { transition-delay: 130ms; }
  .reveal-product-row.in .meta { transition-delay: 190ms; }
}

/* ── Closing block ────────────────────────────────────────────── */
.reveal-closing {
  max-width: 760px;
  margin: 0 auto;
  padding: 96px 32px 144px;
  text-align: center;
  display: flex;
  flex-direction: column;
  align-items: center;
  gap: 28px;
}
.reveal-closing-rule {
  width: 132px;
  height: 1px;
  background: var(--accent);
}
.reveal-closing-sign {
  font-size: clamp(28px, 3.4vw, 40px);
  line-height: 1.08;
  letter-spacing: -0.032em;
  font-weight: 600;
  color: var(--ink-950);
  margin: 0;
  text-wrap: balance;
}
.reveal-closing-sign .em {
  background: linear-gradient(transparent 62%, var(--reveal-accent-soft) 62%);
  padding: 0 0.06em;
}
.reveal-closing-addr {
  font-family: var(--font-mono-stack);
  font-size: 11.5px;
  letter-spacing: 0.12em;
  text-transform: uppercase;
  color: var(--ink-500);
  margin: 0;
  display: inline-flex;
  gap: 10px;
  align-items: baseline;
  flex-wrap: wrap;
  justify-content: center;
}
.reveal-closing-addr a {
  color: var(--ink-800);
  text-decoration: none;
  border-bottom: 1px solid var(--ink-300);
  padding-bottom: 1px;
  transition: border-color var(--motion-base) var(--ease-out);
}
.reveal-closing-addr a:hover {
  border-bottom-color: var(--ink-900);
}
.reveal-closing-addr .sep {
  color: var(--accent);
}

/* Closing CTA pair — self-serve (primary, filled) + venue/events
   (ghost). Restrained pills: quiet at rest, indigo only on hover. */
.reveal-closing-cta {
  display: flex;
  flex-wrap: wrap;
  align-items: center;
  justify-content: center;
  gap: 12px 16px;
  margin-top: 4px;
}
.reveal-cta {
  display: inline-flex;
  align-items: center;
  gap: 1px;
  border-radius: 999px;
  font-size: 14px;
  font-weight: 500;
  letter-spacing: 0.01em;
  text-decoration: none;
  white-space: nowrap;
  transition:
    background var(--motion-base) var(--ease-out),
    color var(--motion-base) var(--ease-out),
    border-color var(--motion-base) var(--ease-out);
}
.reveal-cta-primary {
  padding: 11px 22px;
  background: var(--ink-950);
  color: var(--bg);
}
.reveal-cta-primary:hover {
  background: var(--accent);
}
.reveal-cta-ghost {
  padding: 11px 18px;
  color: var(--ink-800);
  border: 1px solid var(--border-soft);
}
.reveal-cta-ghost:hover {
  color: var(--ink-950);
  border-color: var(--ink-900);
}

/* ── Mobile breakpoints ───────────────────────────────────────── */
@media (max-width: 880px) {
  .reveal-hero {
    padding: 40px 24px 96px;
    min-height: calc(100dvh - 100px);
  }
  .reveal-headline {
    font-size: clamp(36px, 9vw, 72px);
    margin-bottom: 28px;
    max-width: 100%;
  }
  .reveal-subhead {
    margin-bottom: 40px;
  }
  .reveal-stack .stack-row {
    padding: 6px 14px;
  }
  .reveal-stack .mark {
    font-size: clamp(28px, 7.5vw, 44px);
  }
  .reveal-manifesto {
    padding: 96px 24px 96px;
  }
  .reveal-proof {
    padding: 32px 24px 96px;
  }
  .reveal-proof-h2 {
    margin-bottom: 36px;
  }
  .reveal-proof-line {
    grid-template-columns: 1fr;
    gap: 8px;
    padding: 20px 0;
  }
  .reveal-proof-line .when {
    padding-top: 0;
  }
  .reveal-products {
    padding: 0 24px 80px;
  }
  .reveal-product-row {
    grid-template-columns: 1fr;
    gap: 14px;
    padding: 36px 0;
  }
  .reveal-product-row .left {
    gap: 12px;
  }
  .reveal-product-row .mark {
    font-size: clamp(44px, 11vw, 64px);
  }
  .reveal-product-row .essence {
    font-size: 18px;
  }
  .reveal-product-row .meta {
    flex-wrap: wrap;
    gap: 10px;
  }
  .reveal-product-row .meta .open {
    margin-left: 0;
    margin-top: 6px;
    flex-basis: 100%;
  }
  .reveal-closing {
    padding: 80px 24px 96px;
    gap: 22px;
  }
  .reveal-closing-sign {
    font-size: clamp(26px, 6.5vw, 36px);
  }
  .reveal-closing-rule {
    width: 100px;
  }
}
@media (max-width: 540px) {
  .reveal-gold-rule {
    width: 88px;
  }
  .reveal-headline {
    font-size: clamp(32px, 9.5vw, 56px);
  }
  .reveal-stack .mark {
    font-size: clamp(26px, 8vw, 36px);
  }
  .reveal-product-row .mark {
    font-size: clamp(36px, 12vw, 56px);
  }
  .reveal-closing-sign {
    font-size: clamp(24px, 7vw, 32px);
  }
  .reveal-closing-addr {
    font-size: 11px;
    gap: 8px;
  }
}

/* ════════════════════════════════════════════════════════════
   Pricing · per-product marks
   Continuous-loop variants of the four suite-spec gestures for
   the pricing page suite-reveal section. Aligned with the
   design-system v1 motion catalogue (2026-05-13) so /pricing
   reads exactly like the asset hub at /brand.
     - tasks      pulse   2.6s  ease-in-out
     - roadmap    sweep   5.4s  cubic-bezier(.22,.7,.2,1)
     - analytics  tick    2.4s  steps(1,end)
     - notes      caret   1.1s  steps(1,end)
   ════════════════════════════════════════════════════════════ */
.pricing-mark {
  display: inline-flex;
  align-items: baseline;
  font-weight: 500;
  letter-spacing: -0.025em;
  line-height: 0.96;
  color: var(--ink-950);
}
.pricing-mark .word { display: inline-block; }
.pricing-mark .dot {
  width: 0.18em;
  height: 0.18em;
  border-radius: 50%;
  background: var(--accent);
  display: inline-block;
  margin-left: 0.08em;
  transform: translateY(-0.04em);
  position: relative;
  flex: 0 0 auto;
  transform-origin: center;
}

/* tasks · M·02 pulse — dot breathes every 2.6s. */
.pricing-mark[data-key="tasks"] .dot {
  animation: pricing-pulse 2.6s ease-in-out infinite;
}
@keyframes pricing-pulse {
  0%, 30%, 100% { transform: translateY(-0.04em) scale(1); }
  10%           { transform: translateY(-0.04em) scale(1.22); }
  20%           { transform: translateY(-0.04em) scale(1); }
  40%           { transform: translateY(-0.04em) scale(1.12); }
  50%           { transform: translateY(-0.04em) scale(1); }
}

/* roadmap · M·03 sweep — dot tracks left→right, every 5.4s. */
.pricing-mark[data-key="timeline"] .dot {
  animation: pricing-sweep 5.4s cubic-bezier(.22,.7,.2,1) infinite;
}
@keyframes pricing-sweep {
  0%   { transform: translateY(-0.04em) translateX(0); opacity: 1; }
  60%  { transform: translateY(-0.04em) translateX(4px); opacity: 1; }
  62%  { transform: translateY(-0.04em) translateX(4px); opacity: 0; }
  70%  { transform: translateY(-0.04em) translateX(0); opacity: 0; }
  78%  { transform: translateY(-0.04em) translateX(0); opacity: 1; }
  100% { transform: translateY(-0.04em) translateX(0); opacity: 1; }
}

/* analytics · M·04 tick — discrete sample JUMPS, 3.6s steps(1,end).
   Canon (DESIGN.md §5) + the live Analytics product: the dot snaps
   between discrete Y samples and holds; it never glides between
   them. The old 2.4s scaleY squash read as a blink — wrong gesture. */
.pricing-mark[data-key="signal"] .dot {
  animation: pricing-tick 3.6s steps(1, end) infinite;
}
@keyframes pricing-tick {
  0%   { transform: translateY(-0.04em); }
  25%  { transform: translateY(-0.16em); }
  50%  { transform: translateY(0.02em); }
  75%  { transform: translateY(-0.12em); }
  100% { transform: translateY(-0.04em); }
}

/* notes · M·05 caret — dot blinks like a held cursor, 1.1s. */
.pricing-mark[data-key="notes"] .dot {
  animation: pricing-caret 1.1s steps(1,end) infinite;
}
@keyframes pricing-caret {
  0%, 100% { transform: translateY(-0.04em) scale(0.92); opacity: 0.85; }
  50%      { transform: translateY(-0.04em) scale(1.05); opacity: 1; }
}

/* Smaller variant for "what's inside" inline cells */
.pricing-mark.small .dot {
  width: 0.16em;
  height: 0.16em;
}

@media (prefers-reduced-motion: reduce) {
  .pricing-mark .dot,
  .pricing-mark .dot::before {
    animation: none !important;
    opacity: 1 !important;
    transform: translateY(-0.04em) !important;
  }
}

/* ── Pricing · recommended-tier anchor pulse ──────────────────── */
.pricing-anchor-dot {
  display: inline-block;
  width: 6px;
  height: 6px;
  border-radius: 50%;
  background: var(--accent);
  margin-right: 8px;
  animation: pricing-anchor-pulse 5.2s ease-in-out infinite;
  vertical-align: middle;
}
@keyframes pricing-anchor-pulse {
  0%, 100% { opacity: 1; transform: scale(1); }
  50%      { opacity: 0.55; transform: scale(0.85); }
}
@media (prefers-reduced-motion: reduce) {
  .pricing-anchor-dot { animation: none; }
}

/* ── Reduced motion ───────────────────────────────────────────── */
@media (prefers-reduced-motion: reduce) {
  .reveal-gold-rule { width: 132px !important; }
  .reveal-headline .word-inner { transform: none !important; }
  .reveal-subhead,
  .reveal-house-mark,
  .reveal-stack .stack-row { opacity: 1 !important; transform: none !important; }
  .reveal-house-mark .house-dot,
  .reveal-house-mark .house-dot::before {
    animation: none !important;
  }
  .reveal-house-mark .house-dot {
    opacity: 1 !important;
    transform: translateY(-0.04em) !important;
  }
  /* All four product dots: final visible state, no motion. */
  .reveal-stack .stack-row[data-key="tasks"] .dot,
  .reveal-stack .stack-row[data-key="timeline"] .dot,
  .reveal-stack .stack-row[data-key="signal"] .dot,
  .reveal-stack .stack-row[data-key="notes"] .dot {
    animation: none !important;
    opacity: 1 !important;
    transform: translateY(-0.04em) !important;
  }
  .reveal-product-row[data-key="tasks"] .mark .dot,
  .reveal-product-row[data-key="timeline"] .mark .dot,
  .reveal-product-row[data-key="signal"] .mark .dot,
  .reveal-product-row[data-key="notes"] .mark .dot {
    animation: none !important;
    opacity: 1 !important;
    transform: translateY(-0.04em) !important;
  }
  .reveal-manifesto-eyebrow,
  .reveal-manifesto-h2,
  .reveal-manifesto-body,
  .reveal-products-head,
  .reveal-product-row .left,
  .reveal-product-row .right,
  .reveal-closing-sign,
  .reveal-closing-addr { opacity: 1 !important; transform: none !important; }
  .reveal-closing-rule { width: 132px !important; }
}

/* ════════════════════════════════════════════════════════════
   Brand mark · canonical (design system v1, 2026-05-13)
   Five wordmarks, five motions, one indigo. Used by the
   Wordmark component and the /brand asset hub.
     - signal studio.  broadcast  2.6s  (period, baseline)
     - tasks·          pulse      2.6s  ease-in-out (middot, lifted)
     - roadmap·        sweep      5.4s  cubic-bezier(.22,.7,.2,1) (middot, lifted)
     - analytics·      tick       2.4s  steps(1,end) (middot, lifted)
     - notes.          caret      1.1s  steps(1,end) (period, baseline)
   Period = umbrella + nouns. Middot = verbs.
   ════════════════════════════════════════════════════════════ */
.brand-mark {
  position: relative;
  display: inline-flex;
  align-items: baseline;
  font-family: var(--font-sans);
  font-weight: 500;
  letter-spacing: -0.04em;
  color: var(--ink);
  line-height: 1;
  white-space: nowrap;
}
.brand-mark .word { display: inline-block; line-height: 0.95; }
/* The period is DRAWN, not typed: Geist's full-stop glyph is square, and
   the dot is round everywhere or it is not the dot (/design §2 construction:
   0.15em, baseline-seated, +0.02em bearing). Same 10px ceiling as .md. */
.brand-mark .pd {
  position: relative;
  display: inline-block;
  width: min(0.15em, 10px);
  height: min(0.15em, 10px);
  border-radius: 50%;
  background: var(--indigo);
  margin-left: 0.02em;
  transform-origin: center;
  flex: 0 0 auto;
}
.brand-mark .md {
  display: inline-block;
  /* R3 fix 2026-05-17: hard-clamp to max 10px so the dot can never balloon
     if text fails to lay out or fonts are slow to swap. 0.16em at the largest
     intended wordmark size (xl = clamp(2.25rem,…,4rem)) = ~10.24px at max,
     so 10px is the intended ceiling without losing the em-relative feel at
     smaller sizes. See DESIGN.md §13 Loading boundary. */
  width: min(0.16em, 10px);
  height: min(0.16em, 10px);
  border-radius: 50%;
  background: var(--indigo);
  margin-left: 0.06em;
  transform: translateY(-0.62em);
  transform-origin: center;
  flex: 0 0 auto;
}

.brand-mark[data-variant="signal"] .pd { position: relative; }
/* Broadcast is a ONE-SHOT (DESIGN.md §5: "sends rings outward, once").
   is-live runs it a single time, identical to is-intro — the house
   announces itself on arrival and is then quiet. It must never loop;
   the /brand MotionSpecimen re-triggers it per scroll/hover, which is
   the correct way to demonstrate a one-shot gesture. */
.brand-mark[data-variant="signal"].is-live .pd {
  animation: brand-signal-emit 2.6s var(--spring-glide) 1 both;
}
.brand-mark[data-variant="signal"].is-live .ring {
  position: absolute;
  right: -0.015em;
  bottom: -0.015em;
  width: 0.18em;
  height: 0.18em;
  border-radius: 50%;
  border: 1.2px solid var(--indigo);
  transform-origin: center;
  animation: brand-signal-ring 2.6s var(--spring-glide) 1 both;
  pointer-events: none;
}
@keyframes brand-signal-emit {
  0%, 70%, 100% { transform: scale(1); }
  80%           { transform: scale(1.25); }
  90%           { transform: scale(1); }
}
@keyframes brand-signal-ring {
  0%, 60% { opacity: 0; transform: scale(1); }
  65%     { opacity: 0.55; transform: scale(1); }
  100%    { opacity: 0; transform: scale(2.6); }
}

/* House wordmark page-load — broadcast fires exactly once on DOM
   ready, then quiet. Same emit + ring keyframes as .is-live, but a
   single iteration with fill, so the period settles and stays put.
   The header passes this on mount (SiteNav, client). Reduced motion
   is covered by the global reduced-motion block and the .ring reset. */
.brand-mark[data-variant="signal"].is-intro .pd {
  animation: brand-signal-emit 2.6s var(--spring-glide) 1 both;
}
.brand-mark[data-variant="signal"].is-intro .ring {
  position: absolute;
  right: -0.015em;
  bottom: -0.015em;
  width: 0.18em;
  height: 0.18em;
  border-radius: 50%;
  border: 1.2px solid var(--indigo);
  transform-origin: center;
  animation: brand-signal-ring 2.6s var(--spring-glide) 1 both;
  pointer-events: none;
}

.brand-mark[data-variant="tasks"].is-live .md {
  animation: brand-tasks-pulse 2.6s ease-in-out infinite;
}
@keyframes brand-tasks-pulse {
  0%, 30%, 100% { transform: translateY(-0.62em) scale(1); }
  10%           { transform: translateY(-0.62em) scale(1.22); }
  20%           { transform: translateY(-0.62em) scale(1); }
  40%           { transform: translateY(-0.62em) scale(1.12); }
  50%           { transform: translateY(-0.62em) scale(1); }
}

.brand-mark[data-variant="roadmap"].is-live .md {
  animation: brand-timeline-pass 5.4s cubic-bezier(.22,.7,.2,1) infinite;
}
@keyframes brand-timeline-pass {
  0%   { transform: translateY(-0.62em) translateX(0); opacity: 1; }
  60%  { transform: translateY(-0.62em) translateX(4px); opacity: 1; }
  62%  { transform: translateY(-0.62em) translateX(4px); opacity: 0; }
  70%  { transform: translateY(-0.62em) translateX(0); opacity: 0; }
  78%  { transform: translateY(-0.62em) translateX(0); opacity: 1; }
  100% { transform: translateY(-0.62em) translateX(0); opacity: 1; }
}

/* tick = discrete sample jumps, 3.6s steps(1,end) — mirrors the
   live Analytics product (signal-dot-tick) and DESIGN.md §5.
   .md is the cap-height-lifted middot baseline (-0.62em). */
.brand-mark[data-variant="analytics"].is-live .md {
  animation: brand-signal-tick 3.6s steps(1, end) infinite;
}
@keyframes brand-signal-tick {
  0%   { transform: translateY(-0.62em); }
  25%  { transform: translateY(-0.74em); }
  50%  { transform: translateY(-0.56em); }
  75%  { transform: translateY(-0.70em); }
  100% { transform: translateY(-0.62em); }
}

/* notes · M·05 caret — the period reads as a blinking text caret: a tall
   thin indigo bar that blinks like a held cursor (DESIGN.md §5). The '.'
   glyph is hidden and the caret bar is drawn in its place. (Review 3
   issue 05: the old gesture was a scaling/pulsing period, which read as a
   square dot rather than a caret.) */
.brand-mark[data-variant="notes"] .pd {
  background: transparent; /* the caret bar replaces the drawn dot */
  position: relative;
  width: 0.1em;
}
.brand-mark[data-variant="notes"] .pd::after {
  content: "";
  position: absolute;
  left: 0;
  bottom: 0.02em;
  width: 0.085em;
  height: 0.62em;
  border-radius: 0.02em;
  background: var(--indigo);
}
.brand-mark[data-variant="notes"].is-live .pd::after {
  animation: brand-notes-caret 1.1s steps(1, end) infinite;
}
@keyframes brand-notes-caret {
  0%, 50%      { opacity: 1; }
  50.01%, 100% { opacity: 0; }
}

@media (prefers-reduced-motion: reduce) {
  .brand-mark .pd,
  .brand-mark .md,
  .brand-mark .ring { animation: none !important; opacity: 1 !important; }
  .brand-mark[data-variant="notes"] .pd::after { animation: none !important; opacity: 1 !important; }
}

/* ─── Atlas start-here pin ───────────────────────────────────────────────
 * The pinned entry renders above the list as a single full-width anchor.
 * A small indigo dot in the label pulses gently — gesture-system
 * consistent with the broadcast wordmark gesture. The pin is the only
 * place on the atlas index that carries motion.
 */
.atlas-start-here {
  border-top: 1px solid var(--border-soft);
  border-bottom: 1px solid var(--border-soft);
  padding: 2rem 0 1.75rem;
  position: relative;
}
.atlas-start-here-label {
  display: flex;
  align-items: center;
  gap: 0.55rem;
  margin-bottom: 0.85rem;
  font-family: ui-monospace, SFMono-Regular, "SF Mono", Menlo, monospace;
  font-size: 10.5px;
  text-transform: uppercase;
  letter-spacing: 0.06em;
  color: var(--ink-quiet);
}
.atlas-start-here-dot {
  display: inline-block;
  width: 6px;
  height: 6px;
  border-radius: 50%;
  background: var(--accent);
  position: relative;
  animation: atlas-start-here-broadcast 2.8s var(--spring-glide, cubic-bezier(0.4, 0, 0.2, 1)) infinite;
}
.atlas-start-here-dot::after {
  content: "";
  position: absolute;
  inset: -2px;
  border-radius: 50%;
  border: 1px solid var(--accent);
  opacity: 0;
  animation: atlas-start-here-ring 2.8s var(--spring-glide, cubic-bezier(0.4, 0, 0.2, 1)) infinite;
}
@keyframes atlas-start-here-broadcast {
  0%, 100% { transform: scale(1); opacity: 1; }
  45% { transform: scale(1.08); opacity: 0.85; }
}
@keyframes atlas-start-here-ring {
  0% { transform: scale(1); opacity: 0; }
  35% { transform: scale(1.4); opacity: 0.55; }
  80% { transform: scale(2.6); opacity: 0; }
  100% { transform: scale(2.6); opacity: 0; }
}
@media (prefers-reduced-motion: reduce) {
  .atlas-start-here-dot,
  .atlas-start-here-dot::after { animation: none !important; }
  .atlas-start-here-dot::after { opacity: 0 !important; }
}
.atlas-start-here-link {
  text-decoration: none;
}

/* ─── Atlas exec brief ───────────────────────────────────────────────────
 * Sits between the meta line and the article body. Three rows — "What it
 * is" / "Why it matters" / "Risk if it breaks". Plain English, scannable
 * in 30 seconds. The label borrows the suite's eyebrow tracking; the
 * grid uses a left-aligned definition-list rhythm.
 */
.atlas-exec {
  max-width: 62ch;
  border-top: 1px solid var(--border-soft);
  border-bottom: 1px solid var(--border-soft);
  padding: 1.5rem 0 1.25rem;
}
.atlas-exec-label {
  font-family: ui-monospace, SFMono-Regular, "SF Mono", Menlo, monospace;
  font-size: 10.5px;
  text-transform: uppercase;
  letter-spacing: 0.08em;
  color: var(--accent);
  margin-bottom: 1.1rem;
}
.atlas-exec-grid {
  display: grid;
  grid-template-columns: minmax(0, 1fr);
  gap: 0.9rem;
}
.atlas-exec-row {
  display: grid;
  grid-template-columns: 9rem minmax(0, 1fr);
  gap: 1.25rem;
  align-items: baseline;
}
@media (max-width: 640px) {
  .atlas-exec-row {
    grid-template-columns: minmax(0, 1fr);
    gap: 0.2rem;
  }
}
.atlas-exec-row dt {
  font-family: ui-monospace, SFMono-Regular, "SF Mono", Menlo, monospace;
  font-size: 11px;
  text-transform: uppercase;
  letter-spacing: 0.06em;
  color: var(--ink-quiet);
  padding-top: 0.15rem;
}
.atlas-exec-row dd {
  color: var(--ink);
  font-size: 15px;
  line-height: 1.55;
  margin: 0;
}
.atlas-exec-foot {
  margin-top: 1.2rem;
  font-size: 12px;
  line-height: 1.55;
  color: var(--ink-quiet);
  max-width: 56ch;
}

/* ─── HQ type ladder ──────────────────────────────────────────────────
 * Five steps. Use these instead of arbitrary text-[XXpx] classes when
 * touching HQ surfaces. The mixed-size status quo in hq-dashboard.tsx
 * stays for now; new code adopts the ladder.
 *
 *   .hq-text-xs    11px mono · eyebrows, timestamps, nav labels
 *   .hq-text-sm    13px       · body, table rows, list items
 *   .hq-text-base  15px       · panel descriptors, prose
 *   .hq-text-md    22px       · section title, H2 feature
 *   .hq-text-lg    var(--fs-title) · single page-level moment
 */
.hq-text-xs {
  font-family: ui-monospace, SFMono-Regular, "SF Mono", Menlo, monospace;
  font-size: 11px;
  letter-spacing: 0.04em;
  color: var(--ink-quiet);
}
.hq-text-sm {
  font-size: 13px;
  line-height: 1.55;
  color: var(--ink);
}
.hq-text-base {
  font-size: 15px;
  line-height: 1.6;
  color: var(--ink);
}
.hq-text-md {
  font-size: 22px;
  font-weight: 500;
  line-height: 1.35;
  letter-spacing: -0.01em;
  color: var(--ink);
}
.hq-text-lg {
  font-size: var(--fs-title, clamp(1.875rem, 1.4rem + 2.2vw, 3.25rem));
  font-weight: 500;
  line-height: 1.05;
  letter-spacing: -0.035em;
  color: var(--ink);
}

/* ─── HQ score — replaces stoplight progress bars ────────────────────── */
.hq-score { display: grid; gap: 0.4rem; }
.hq-score-row {
  display: flex;
  align-items: baseline;
  justify-content: space-between;
  gap: 1rem;
}
.hq-score-row--solo { justify-content: flex-end; }
.hq-score-label { font-size: 12.5px; color: var(--ink-quiet); }
.hq-score-value {
  font-family: ui-monospace, SFMono-Regular, "SF Mono", Menlo, monospace;
  font-size: 13px;
  font-variant-numeric: tabular-nums;
  color: var(--ink);
  letter-spacing: 0.02em;
}
.hq-score-value--alert { color: var(--accent); }
.hq-score-meter {
  position: relative;
  height: 1px;
  background: var(--border-soft);
}
.hq-score-meter-fill {
  position: absolute;
  inset: 0 auto 0 0;
  background: var(--ink);
  transition: width 0.2s ease-out;
}
.hq-score-meter-fill--alert { background: var(--accent); }

/* ─── HQ panel — chrome stripped to hairline section ──────────────────── */
.hq-panel {
  border: 0;
  border-radius: 0;
  box-shadow: none;
  background: transparent;
  padding: 1.25rem 0 1.5rem 0;
  border-top: 1px solid var(--border-soft);
}

/* ─── HQ status pill — restrained replacement for stoplight badges ─────── */
.hq-status {
  display: inline-flex;
  align-items: baseline;
  gap: 0.4rem;
  font-family: ui-monospace, SFMono-Regular, "SF Mono", Menlo, monospace;
  font-size: 10.5px;
  letter-spacing: 0.06em;
  color: var(--ink-quiet);
  white-space: nowrap;
}
.hq-status-dot {
  display: inline-block;
  width: 0.4rem;
  height: 0.4rem;
  border-radius: 50%;
  background: var(--ink-quiet);
  align-self: center;
  transform: translateY(-0.05rem);
  flex: 0 0 auto;
}
.hq-status[data-tier="alert"] { color: var(--accent); }
.hq-status[data-tier="alert"] .hq-status-dot {
  background: var(--accent);
  box-shadow: 0 0 0 3px rgba(79, 70, 229, 0.12);
}
.hq-status[data-tier="active"] { color: var(--ink); }
.hq-status[data-tier="active"] .hq-status-dot { background: var(--ink-soft); }
.hq-status[data-tier="done"] { color: var(--ink-quiet); }
.hq-status[data-tier="done"] .hq-status-dot {
  background: transparent;
  border: 1px solid var(--ink-quiet);
}

/* ─── HQ Inbox — what needs an answer right now ───────────────────────── */
.hq-inbox {
  margin: 0 auto;
  max-width: 1180px;
  padding: 2.25rem 1.5rem 1.75rem;
  border-bottom: 1px solid var(--border-soft);
}
.hq-inbox--loading { min-height: 4rem; }
.hq-inbox--clear { padding-bottom: 2.5rem; }
.hq-inbox-header {
  display: flex;
  justify-content: space-between;
  align-items: baseline;
  margin-bottom: 1rem;
}
.hq-inbox-eyebrow {
  font-family: ui-monospace, SFMono-Regular, "SF Mono", Menlo, monospace;
  font-size: 10.5px;
  text-transform: uppercase;
  letter-spacing: 0.08em;
  color: var(--accent);
}
.hq-inbox-stamp,
.hq-inbox-counts {
  font-family: ui-monospace, SFMono-Regular, "SF Mono", Menlo, monospace;
  font-size: 10.5px;
  text-transform: uppercase;
  letter-spacing: 0.08em;
  color: var(--ink-quiet);
}
.hq-inbox-clear-line {
  color: var(--ink-soft);
  font-size: 14px;
  line-height: 1.55;
  margin: 0;
  max-width: 58ch;
}
.hq-inbox-list {
  list-style: none;
  margin: 0;
  padding: 0;
}
.hq-inbox-row-wrap {
  border-top: 1px solid var(--border-soft);
}
.hq-inbox-row-wrap:last-child {
  border-bottom: 1px solid var(--border-soft);
}
.hq-inbox-dismissable {
  position: relative;
}
.hq-inbox-dismiss {
  position: absolute;
  top: 50%;
  right: 0.5rem;
  transform: translateY(-50%);
  font-family: ui-monospace, SFMono-Regular, "SF Mono", Menlo, monospace;
  font-size: 10.5px;
  text-transform: lowercase;
  letter-spacing: 0.06em;
  color: var(--ink-quiet);
  background: transparent;
  border: 1px solid var(--border-soft);
  border-radius: 0;
  padding: 0.15rem 0.5rem;
  opacity: 0;
  transition: opacity 0.12s ease-out, color 0.12s ease-out, border-color 0.12s ease-out;
  cursor: pointer;
  z-index: 2;
}
.hq-inbox-dismissable:hover .hq-inbox-dismiss,
.hq-inbox-dismiss:focus {
  opacity: 1;
}
.hq-inbox-dismiss:hover {
  color: var(--accent);
  border-color: var(--accent);
}
.hq-inbox-row {
  display: grid;
  grid-template-columns: 0.85rem 5rem minmax(0, 1.7fr) minmax(0, 1fr);
  gap: 0.85rem;
  align-items: baseline;
  padding: 0.7rem 0;
  text-decoration: none;
  position: relative;
  transition: padding-left 0.16s ease-out, background 0.16s ease-out;
}
.hq-inbox-row--linked:hover {
  padding-left: 0.4rem;
  background: var(--paper-soft);
}
.hq-inbox-row--linked:hover .hq-inbox-row-title {
  color: var(--accent);
}
.hq-inbox-tier {
  display: inline-block;
  width: 0.45rem;
  height: 0.45rem;
  border-radius: 50%;
  background: var(--ink-quiet);
  transform: translateY(-0.05rem);
}
.hq-inbox-tier[data-tier="high"] {
  background: var(--accent);
  box-shadow: 0 0 0 3px rgba(79, 70, 229, 0.12);
}
.hq-inbox-tier[data-tier="mid"] { background: var(--ink-soft); }
.hq-inbox-tier[data-tier="low"] { background: var(--ink-quiet); }
.hq-inbox-row-source {
  font-family: ui-monospace, SFMono-Regular, "SF Mono", Menlo, monospace;
  font-size: 10.5px;
  text-transform: lowercase;
  letter-spacing: 0.06em;
  color: var(--ink-quiet);
  align-self: flex-start;
  padding-top: 0.1rem;
}
.hq-inbox-row-title {
  color: var(--ink);
  font-size: 13.5px;
  font-weight: 500;
  line-height: 1.5;
  min-width: 0;
  transition: color 0.12s ease-out;
}
.hq-inbox-row-detail {
  color: var(--ink-quiet);
  font-size: 12px;
  line-height: 1.55;
  min-width: 0;
  overflow: hidden;
  text-overflow: ellipsis;
  white-space: nowrap;
}
@media (max-width: 700px) {
  .hq-inbox-row {
    grid-template-columns: 0.85rem minmax(0, 1fr);
    grid-template-areas:
      "tier title"
      "tier source"
      "tier detail";
    gap: 0.25rem 0.85rem;
  }
  .hq-inbox-tier { grid-area: tier; align-self: flex-start; margin-top: 0.4rem; }
  .hq-inbox-row-title { grid-area: title; }
  .hq-inbox-row-source { grid-area: source; padding-top: 0; }
  .hq-inbox-row-detail { grid-area: detail; white-space: normal; }
}

/* ─── HQ Today — derived signal block above the dashboard ─────────────── */
.hq-today {
  margin: 0 auto;
  max-width: 1180px;
  padding: 2.25rem 1.5rem 1.5rem;
  border-bottom: 1px solid var(--border-soft);
}
.hq-today--loading { min-height: 4rem; }
.hq-today-header {
  display: flex;
  justify-content: space-between;
  align-items: baseline;
  margin-bottom: 0.6rem;
}
.hq-today-eyebrow,
.hq-today-stamp {
  font-family: ui-monospace, SFMono-Regular, "SF Mono", Menlo, monospace;
  font-size: 10.5px;
  text-transform: uppercase;
  letter-spacing: 0.08em;
  color: var(--ink-quiet);
}
.hq-today-eyebrow { color: var(--accent); }
.hq-today-headline {
  font-size: clamp(1.25rem, 1rem + 1vw, 1.625rem);
  font-weight: 500;
  color: var(--ink);
  line-height: 1.35;
  margin: 0 0 1.75rem 0;
  letter-spacing: -0.01em;
  max-width: 62ch;
}
.hq-today-products {
  display: grid;
  grid-template-columns: repeat(auto-fit, minmax(180px, 1fr));
  gap: 0;
  margin-bottom: 2rem;
  border-top: 1px solid var(--border-soft);
}
.hq-today-product {
  padding: 0.9rem 1rem 0.9rem 0;
}
.hq-today-product + .hq-today-product {
  padding-left: 1rem;
}
@media (min-width: 700px) {
  .hq-today-product + .hq-today-product {
    border-left: 1px solid var(--border-soft);
  }
}
.hq-today-product-name {
  font-size: 14.5px;
  font-weight: 500;
  color: var(--ink);
  letter-spacing: -0.01em;
  margin-bottom: 0.15rem;
}
.hq-today-product-layer {
  font-family: ui-monospace, SFMono-Regular, "SF Mono", Menlo, monospace;
  font-size: 10.5px;
  text-transform: lowercase;
  letter-spacing: 0.08em;
  color: var(--accent);
  margin-bottom: 0.25rem;
}
.hq-today-product-meta {
  font-family: ui-monospace, SFMono-Regular, "SF Mono", Menlo, monospace;
  font-size: 11px;
  letter-spacing: 0.04em;
  color: var(--ink-quiet);
  font-variant-numeric: tabular-nums;
}

.hq-today-pilots {
  margin-top: 2rem;
  padding-top: 1.25rem;
  border-top: 1px solid var(--border-soft);
}
.hq-today-pilot-list {
  list-style: none;
  margin: 0;
  padding: 0;
  display: grid;
  gap: 0.6rem;
}
.hq-today-pilot-row {
  display: grid;
  grid-template-columns: minmax(0, 1fr) minmax(0, auto);
  gap: 0.6rem 1rem;
  padding: 0.5rem 0;
  border-bottom: 1px solid var(--border-soft);
  align-items: baseline;
}
.hq-today-pilot-row:last-child { border-bottom: 0; }
.hq-today-pilot-title {
  color: var(--ink);
  font-size: 13.5px;
  line-height: 1.45;
}
.hq-today-pilot-meta {
  font-family: ui-monospace, SFMono-Regular, "SF Mono", Menlo, monospace;
  font-size: 11px;
  letter-spacing: 0.04em;
  color: var(--ink-quiet);
  white-space: nowrap;
}
.hq-today-pilot-next {
  grid-column: 1 / -1;
  color: var(--ink-soft);
  font-size: 12.5px;
  line-height: 1.5;
  font-style: italic;
}

.hq-today-grid {
  display: grid;
  grid-template-columns: repeat(auto-fit, minmax(220px, 1fr));
  gap: 0;
}
.hq-today-block {
  padding: 1.1rem 1.25rem 1.1rem 0;
  border-top: 1px solid var(--border-soft);
}
.hq-today-block + .hq-today-block { padding-left: 1.25rem; }
@media (min-width: 700px) {
  .hq-today-block + .hq-today-block {
    border-left: 1px solid var(--border-soft);
  }
}
.hq-today-label {
  font-family: ui-monospace, SFMono-Regular, "SF Mono", Menlo, monospace;
  font-size: 10.5px;
  text-transform: uppercase;
  letter-spacing: 0.08em;
  color: var(--ink-quiet);
  margin-bottom: 0.75rem;
}
.hq-today-list {
  list-style: none;
  margin: 0;
  padding: 0;
  display: grid;
  gap: 0.35rem;
}
.hq-today-row {
  display: grid;
  grid-template-columns: minmax(0, auto) minmax(0, auto) minmax(0, 1fr);
  gap: 0.6rem;
  align-items: baseline;
  font-size: 12.5px;
  line-height: 1.55;
}
.hq-today-row-name {
  color: var(--ink);
  font-weight: 500;
  font-family: ui-monospace, SFMono-Regular, "SF Mono", Menlo, monospace;
  font-size: 11.5px;
  letter-spacing: 0.02em;
}
.hq-today-row-meta {
  color: var(--ink-quiet);
  font-family: ui-monospace, SFMono-Regular, "SF Mono", Menlo, monospace;
  font-size: 11px;
  font-variant-numeric: tabular-nums;
  white-space: nowrap;
}
.hq-today-row-meta[data-status="red"] { color: var(--accent); }
.hq-today-row-meta[data-status="amber"] { color: var(--ink); }
.hq-today-row-meta[data-status="green"] { color: var(--ink-quiet); }
.hq-today-row-meta[data-status="never"] { color: var(--ink-quiet); font-style: italic; }
.hq-today-row-detail {
  color: var(--ink-quiet);
  font-size: 11.5px;
  white-space: nowrap;
  overflow: hidden;
  text-overflow: ellipsis;
  min-width: 0;
}
.hq-today-strong-line {
  color: var(--ink);
  font-size: 13.5px;
  font-weight: 500;
  margin: 0 0 0.5rem 0;
  line-height: 1.45;
}
.hq-today-strong { color: var(--accent); font-weight: 600; }
.hq-today-clear,
.hq-today-empty {
  color: var(--ink-quiet);
  font-size: 12.5px;
  font-style: italic;
  margin: 0;
}
.hq-today-footnote {
  margin: 0.7rem 0 0 0;
  font-size: 11.5px;
  color: var(--ink-quiet);
  line-height: 1.5;
}
.hq-today-risks {
  margin-top: 2rem;
  padding-top: 1.25rem;
  border-top: 1px solid var(--border-soft);
}
.hq-today-risks-list {
  list-style: none;
  margin: 0;
  padding: 0;
  display: grid;
  gap: 0.45rem;
}
.hq-today-risk-row {
  display: grid;
  grid-template-columns: 0.7rem minmax(0, 1fr) minmax(0, auto);
  gap: 0.7rem;
  align-items: baseline;
  padding: 0.35rem 0;
  border-bottom: 1px solid var(--border-soft);
}
.hq-today-risk-row:last-child { border-bottom: 0; }
.hq-today-risk-tier {
  display: inline-block;
  width: 0.45rem;
  height: 0.45rem;
  border-radius: 50%;
  background: var(--border-soft);
  align-self: center;
  transform: translateY(-0.05rem);
}
.hq-today-risk-tier[data-tier="high"] { background: var(--accent); }
.hq-today-risk-tier[data-tier="mid"] { background: var(--ink-soft); }
.hq-today-risk-tier[data-tier="low"] { background: var(--ink-quiet); }
.hq-today-risk-title {
  color: var(--ink);
  font-size: 13.5px;
  line-height: 1.5;
  min-width: 0;
}
.hq-today-risk-meta {
  font-family: ui-monospace, SFMono-Regular, "SF Mono", Menlo, monospace;
  font-size: 11px;
  text-transform: lowercase;
  letter-spacing: 0.04em;
  color: var(--ink-quiet);
  white-space: nowrap;
}

.hq-today-fproduct {
  margin-top: 2rem;
  padding-top: 1.25rem;
  border-top: 1px solid var(--border-soft);
  display: grid;
  grid-template-columns: 1fr;
  gap: 1.5rem;
}
@media (min-width: 700px) {
  .hq-today-fproduct { grid-template-columns: 1fr 1fr; }
  .hq-today-fproduct-col + .hq-today-fproduct-col {
    border-left: 1px solid var(--border-soft);
    padding-left: 1.5rem;
  }
}
.hq-today-feature-list,
.hq-today-campaign-list {
  list-style: none;
  margin: 0.65rem 0 0 0;
  padding: 0;
  display: grid;
  gap: 0.3rem;
}
.hq-today-feature-row,
.hq-today-campaign-row {
  display: grid;
  grid-template-columns: minmax(0, auto) minmax(0, 1fr) minmax(0, auto);
  gap: 0.55rem;
  align-items: baseline;
  font-size: 12.5px;
  color: var(--ink);
  line-height: 1.5;
}
.hq-today-feature-bullet,
.hq-today-campaign-meta,
.hq-today-feature-meta {
  font-family: ui-monospace, SFMono-Regular, "SF Mono", Menlo, monospace;
  font-size: 11px;
  text-transform: lowercase;
  letter-spacing: 0.04em;
  color: var(--ink-quiet);
  white-space: nowrap;
}
.hq-today-campaign-title { color: var(--ink); }

.hq-today-decisions {
  margin-top: 2rem;
  padding-top: 1.25rem;
  border-top: 1px solid var(--border-soft);
}
.hq-today-decisions-list {
  list-style: none;
  margin: 0;
  padding: 0;
  display: grid;
  gap: 0.4rem;
}
.hq-today-decision-row {
  display: grid;
  grid-template-columns: 5.25rem minmax(0, 1fr) minmax(0, auto);
  gap: 0.9rem;
  align-items: baseline;
  padding: 0.35rem 0;
  border-bottom: 1px solid var(--border-soft);
}
.hq-today-decision-row:last-child { border-bottom: 0; }
.hq-today-decision-date {
  font-family: ui-monospace, SFMono-Regular, "SF Mono", Menlo, monospace;
  font-size: 11px;
  color: var(--ink-quiet);
  font-variant-numeric: tabular-nums;
}
.hq-today-decision-title {
  color: var(--ink);
  font-size: 13.5px;
  line-height: 1.5;
  min-width: 0;
}
.hq-today-decision-meta {
  font-family: ui-monospace, SFMono-Regular, "SF Mono", Menlo, monospace;
  font-size: 11px;
  text-transform: lowercase;
  letter-spacing: 0.04em;
  color: var(--ink-quiet);
  white-space: nowrap;
}

.hq-today-foot {
  display: flex;
  gap: 1.5rem;
  flex-wrap: wrap;
  margin-top: 1.5rem;
  padding-top: 1rem;
  border-top: 1px solid var(--border-soft);
}
.hq-today-link {
  font-family: ui-monospace, SFMono-Regular, "SF Mono", Menlo, monospace;
  font-size: 11px;
  text-transform: lowercase;
  letter-spacing: 0.04em;
  color: var(--ink);
  text-decoration: none;
  transition: color 0.12s ease-out;
}
.hq-today-link:hover { color: var(--accent); }

/* ─── HQ dashboard register reset ────────────────────────────────────────
 * Removes the rounded card chrome and segmented-control tab nav from the
 * existing HqDashboard component, bringing it inline with the atlas
 * register. Targets are class selectors set up by the dashboard component;
 * see hq-dashboard.tsx for the matching JSX.
 */
/* .hq-panel — see definition earlier in file (Phase 2 cleanup removed
 * the !important overrides since Panel's className no longer ships the
 * rounded chrome). */
.hq-tab {
  border: 0 !important;
  border-radius: 0 !important;
  background: transparent !important;
  padding-left: 0.75rem !important;
  border-left: 2px solid transparent !important;
  color: var(--ink-quiet) !important;
  font-weight: 400 !important;
  transition: color 0.12s ease-out, border-color 0.12s ease-out !important;
}
.hq-tab:hover { color: var(--ink) !important; }
.hq-tab[data-active="true"] {
  color: var(--ink) !important;
  border-left-color: var(--accent) !important;
  font-weight: 500 !important;
}
.hq-score-number {
  font-size: 22px !important;
  font-weight: 500 !important;
  font-variant-numeric: tabular-nums;
  color: var(--ink);
}

/* ─── Atlas index row ────────────────────────────────────────────────────
 * The card grid is gone (it read as Notion). Each entry is a single row in
 * a divide-y typographic list — monospace index left, title + summary
 * middle, age right. Hover slides a thin indigo bar in from the left
 * margin (signature motion moment, gesture-system consistent).
 */
.atlas-row {
  text-decoration: none;
  position: relative;
  padding-left: 0.6rem;
  transition: padding-left 0.18s ease-out;
}
.atlas-row::before {
  content: "";
  position: absolute;
  left: 0;
  top: 1.55rem;
  bottom: 1.55rem;
  width: 2px;
  background: var(--accent);
  transform: scaleY(0);
  transform-origin: top center;
  transition: transform 0.22s cubic-bezier(0.4, 0, 0.2, 1);
}
.atlas-row:hover {
  padding-left: 1rem;
}
.atlas-row:hover::before {
  transform: scaleY(1);
}
.atlas-row-index {
  font-family: ui-monospace, SFMono-Regular, "SF Mono", Menlo, monospace;
  font-size: 11px;
  color: var(--ink-quiet);
  font-variant-numeric: tabular-nums;
  letter-spacing: 0.04em;
  flex: 0 0 1.75rem;
  align-self: flex-start;
  padding-top: 0.15rem;
  transition: color 0.18s ease-out;
}
.atlas-row:hover .atlas-row-index {
  color: var(--accent);
}
.atlas-row-title {
  display: inline;
  color: var(--ink);
  font-size: 15px;
  font-weight: 500;
  line-height: 1.45;
  transition: color 0.12s ease-out;
}
.atlas-row-state {
  font-family: ui-monospace, SFMono-Regular, "SF Mono", Menlo, monospace;
  font-size: 10.5px;
  font-weight: 400;
  color: var(--ink-quiet);
  letter-spacing: 0.04em;
  text-transform: lowercase;
}
.atlas-row-summary {
  color: var(--ink-quiet);
  font-size: 13px;
  line-height: 1.55;
  margin-top: 0.25rem;
  max-width: 56ch;
}
.atlas-row-age {
  font-family: ui-monospace, SFMono-Regular, "SF Mono", Menlo, monospace;
  font-size: 11px;
  color: var(--ink-quiet);
  font-variant-numeric: tabular-nums;
  flex: 0 0 auto;
  align-self: flex-start;
  padding-top: 0.15rem;
  white-space: nowrap;
}

/* ─── Atlas prose ─────────────────────────────────────────────────────────
 * Used by /hq/atlas/[slug] to render markdown body. Engineering-notebook
 * register — generous whitespace, restrained heading scale, hairline
 * dividers, code blocks that look like inline code, not chrome.
 */
.atlas-prose {
  color: var(--ink-soft);
  font-size: clamp(0.9375rem, 0.875rem + 0.3vw, 1.0625rem);
  line-height: 1.75;
  max-width: 62ch;
}
.atlas-prose .atlas-h2 {
  color: var(--ink);
  font-size: 0.75rem;
  font-weight: 600;
  letter-spacing: var(--tracking-eyebrow);
  text-transform: uppercase;
  margin-top: 3.5rem;
  margin-bottom: 1.25rem;
  padding-top: 1.5rem;
  border-top: 1px solid var(--border-soft);
}
.atlas-prose .atlas-h2:first-child {
  margin-top: 0;
  padding-top: 0;
  border-top: 0;
}
.atlas-prose .atlas-h3 {
  color: var(--ink);
  font-size: 1rem;
  font-weight: 500;
  margin-top: 2rem;
  margin-bottom: 0.75rem;
}
.atlas-prose p {
  margin-bottom: 1.1rem;
}
.atlas-prose .atlas-ul,
.atlas-prose .atlas-ol {
  margin: 0 0 1.25rem 0;
  padding-left: 1.25rem;
}
.atlas-prose .atlas-ul li,
.atlas-prose .atlas-ol li {
  margin-bottom: 0.55rem;
}
.atlas-prose .atlas-ul { list-style: none; padding-left: 0; }
.atlas-prose .atlas-ul li { position: relative; padding-left: 1.25rem; }
.atlas-prose .atlas-ul li::before {
  content: "";
  position: absolute;
  left: 0;
  top: 0.7em;
  width: 0.6rem;
  height: 1px;
  background: var(--ink-quiet);
}
.atlas-prose .atlas-ol { list-style: decimal; }
.atlas-prose .atlas-ol li::marker {
  color: var(--ink-quiet);
  font-variant-numeric: tabular-nums;
}
.atlas-prose .atlas-link {
  color: var(--ink);
  text-decoration: underline;
  text-decoration-color: var(--border-soft);
  text-underline-offset: 3px;
  transition: color 0.15s, text-decoration-color 0.15s;
}
.atlas-prose .atlas-link:hover {
  color: var(--accent);
  text-decoration-color: var(--accent);
}
.atlas-prose .atlas-code {
  font-family: ui-monospace, SFMono-Regular, "SF Mono", Menlo, monospace;
  font-size: 0.86em;
  background: var(--paper-soft);
  border: 1px solid var(--border-soft);
  padding: 0.05em 0.4em;
  color: var(--ink);
}
.atlas-prose .atlas-codeblock {
  margin: 1.25rem 0 1.5rem 0;
}
.atlas-prose .atlas-code-label {
  font-size: 10.5px;
  text-transform: uppercase;
  letter-spacing: var(--tracking-eyebrow);
  color: var(--ink-quiet);
  margin-bottom: 0.4rem;
}
.atlas-prose .atlas-codeblock pre {
  background: var(--paper-soft);
  border: 1px solid var(--border-soft);
  padding: 1rem 1.1rem;
  overflow-x: auto;
  font-family: ui-monospace, SFMono-Regular, "SF Mono", Menlo, monospace;
  font-size: 0.82rem;
  line-height: 1.65;
  color: var(--ink-soft);
}
.atlas-prose strong { color: var(--ink); font-weight: 600; }
.atlas-prose em { color: var(--ink-soft); font-style: italic; }

/* ─── Atlas mermaid diagram ──────────────────────────────────────────────
 * Server-rendered placeholder; client component (AtlasMermaidHydrator)
 * swaps the inner fallback <pre> for an SVG on mount. The container
 * sits as a full-width prose block with a hairline frame so the diagram
 * reads as a separate object from the body text.
 */
.atlas-prose .atlas-mermaid {
  margin: 2rem 0 2.25rem 0;
  padding: 1.75rem 1.25rem 1.5rem;
  background: var(--paper);
  border: 1px solid var(--border-soft);
  position: relative;
  overflow-x: auto;
}
.atlas-prose .atlas-mermaid::before {
  content: "diagram";
  position: absolute;
  top: 0.65rem;
  left: 1.25rem;
  font-family: ui-monospace, SFMono-Regular, "SF Mono", Menlo, monospace;
  font-size: 10px;
  text-transform: uppercase;
  letter-spacing: 0.08em;
  color: var(--ink-quiet);
}
.atlas-prose .atlas-mermaid[data-rendered="true"]::before {
  display: none; /* SVG carries its own visual identity */
}
.atlas-prose .atlas-mermaid svg {
  display: block;
  margin: 0 auto;
  max-width: 100%;
  height: auto;
}
.atlas-prose .atlas-mermaid .atlas-mermaid-fallback {
  margin: 0.6rem 0 0 0;
  background: transparent;
  border: 0;
  padding: 0;
  font-family: ui-monospace, SFMono-Regular, "SF Mono", Menlo, monospace;
  font-size: 12px;
  line-height: 1.6;
  color: var(--ink-quiet);
  white-space: pre;
}
.atlas-prose .atlas-mermaid[data-render-error="true"] {
  border-color: var(--accent);
}

/* Mermaid theme overrides — match suite register (paper white, ink #111,
 * indigo accent on edges where the diagram has emphasis). */
.atlas-prose .atlas-mermaid svg .node rect,
.atlas-prose .atlas-mermaid svg .node circle,
.atlas-prose .atlas-mermaid svg .node ellipse,
.atlas-prose .atlas-mermaid svg .node polygon,
.atlas-prose .atlas-mermaid svg .node path {
  fill: var(--paper) !important;
  stroke: var(--ink) !important;
  stroke-width: 1px !important;
}
.atlas-prose .atlas-mermaid svg .nodeLabel,
.atlas-prose .atlas-mermaid svg .nodeLabel * {
  color: var(--ink) !important;
  fill: var(--ink) !important;
  font-family: var(--font-sans) !important; /* was Inter — SDS 2.0: Geist only */
}
.atlas-prose .atlas-mermaid svg .edgePath .path {
  stroke: var(--ink-quiet) !important;
  stroke-width: 1px !important;
}
.atlas-prose .atlas-mermaid svg .edgeLabel,
.atlas-prose .atlas-mermaid svg .edgeLabel * {
  background: var(--paper) !important;
  color: var(--ink-soft) !important;
  fill: var(--ink-soft) !important;
  font-family: ui-monospace, SFMono-Regular, "SF Mono", Menlo, monospace !important;
  font-size: 11px !important;
}
.atlas-prose .atlas-mermaid svg marker path,
.atlas-prose .atlas-mermaid svg defs marker path {
  fill: var(--ink-quiet) !important;
  stroke: var(--ink-quiet) !important;
}
.atlas-prose .atlas-mermaid svg .cluster rect {
  fill: var(--paper-soft) !important;
  stroke: var(--border-soft) !important;
  stroke-dasharray: 0 !important;
}

/* ── Proof handoff trace (1→2, 2→3, 3→4) ──────────────────────────
   1px indigo hairline that draws downward into each stage on entry.
   The handoffs are the product; this draws the handoff. Owned by
   HandoffTrace (client). Reduced motion is handled twice over: the
   component renders .is-drawn on mount, and the global reduced-motion
   block above neutralises the transition — the line is simply present.
   ────────────────────────────────────────────────────────────── */
.proof-trace {
  display: flex;
  justify-content: center;
  margin-bottom: 28px;
  pointer-events: none;
}
.proof-trace-svg line {
  stroke-dasharray: 1;
  stroke-dashoffset: 1;
  transition: stroke-dashoffset 340ms var(--reveal-ease-glide);
}
.proof-trace-svg.is-drawn line {
  stroke-dashoffset: 0;
}

/* ── Proof Stage 1 capture reveal ──────────────────────────────────
   Notebook lines arrive one at a time on viewport entry. Server-
   rendered visible; .capture-armed (JS, motion only) hides them, then
   .is-in releases them with a per-line transition-delay set inline.
   Reduced motion never arms, and the global reduced-motion block above
   neutralises the transition either way. transform + opacity only.
   ────────────────────────────────────────────────────────────────── */
.capture-armed .capture-line {
  opacity: 0;
  transform: translateY(8px);
  transition:
    opacity 300ms var(--reveal-ease-glide),
    transform 300ms var(--reveal-ease-glide);
}
.capture-armed.is-in .capture-line {
  opacity: 1;
  transform: none;
}

/* ── CTA arrow nudge ───────────────────────────────────────────────
   The "→" in a call-to-action drifts 4px right on hover — roadmap·'s
   "advance" gesture quoted at micro-scale. One class, applied site-
   wide. Pointer-hover only (no jump on touch); transform only; the
   global reduced-motion block above flattens the transition.
   ────────────────────────────────────────────────────────────────── */
.cta-arrow {
  display: inline-block;
  transition: transform 180ms ease-out;
}
@media (hover: hover) {
  a:hover .cta-arrow,
  button:hover .cta-arrow {
    transform: translateX(4px);
  }
}

/* ── /brand motion specimen ────────────────────────────────────────
   Click freezes the gesture mid-motion (play-state paused, not
   removed — the wordmark holds its current frame) and the spec line
   goes indigo so duration + motion name read as the answer to "what
   am I looking at". Hover/scroll restart is handled in the component.
   ────────────────────────────────────────────────────────────────── */
.brand-mark.is-paused .pd,
.brand-mark.is-paused .md,
.brand-mark.is-paused .ring {
  animation-play-state: paused;
}
.motion-specimen-spec {
  transition: color 150ms ease-out;
}
.motion-specimen[data-paused="true"] .motion-specimen-spec {
  color: var(--indigo);
}
/* ── Contact confirmation (P9) — house broadcast, once ─────────────
   Reuses the M·01 broadcast keyframes (brand-signal-emit on the dot,
   brand-signal-ring on the ring), single iteration. The line settles
   in once, behind the ring. transform + opacity only. Global reduced-
   motion block neutralises all of it; the component also drops the
   ring element under reduced motion.
   ────────────────────────────────────────────────────────────────── */
.contact-confirm {
  display: flex;
  align-items: center;
  gap: 0.625rem;
}
.contact-confirm-dot {
  position: relative;
  display: inline-block;
  width: 0.5rem;
  height: 0.5rem;
  border-radius: 50%;
  background: var(--indigo);
  animation: brand-signal-emit 2.6s var(--spring-glide) 1 both;
}
.contact-confirm-ring {
  position: absolute;
  inset: 0;
  border-radius: 50%;
  border: 1.2px solid var(--indigo);
  transform-origin: center;
  animation: brand-signal-ring 2.6s var(--spring-glide) 1 both;
  pointer-events: none;
}
.contact-confirm-line {
  margin: 0;
  font-size: 14.5px;
  color: var(--ink-soft);
  opacity: 0;
  animation: contact-confirm-in 320ms var(--reveal-ease-glide) 200ms both;
}
@keyframes contact-confirm-in {
  from { opacity: 0; transform: translateY(4px); }
  to   { opacity: 1; transform: none; }
}
@media (prefers-reduced-motion: reduce) {
  .contact-confirm-dot { animation: none !important; }
  .contact-confirm-line {
    opacity: 1 !important;
    transform: none !important;
  }
}

/* ═══════════════════════════════════════════════════════════════════════
 * Signal HQ — mission-control spine (2026-05-16 rebuild)
 *
 * One urgency-ordered page in the atlas register: paper white, ink
 * #111, one indigo, hairlines instead of card chrome. New brand-guide
 * deltas applied white-locked — sharper radius, flat hairline-anchored
 * shadows (no indigo glow), fixed type ladder. Function colour (red)
 * appears once, only on a genuinely-critical signal — never decoration.
 * ═══════════════════════════════════════════════════════════════════ */

.hq-spine {
  --hq-r: 6px;                 /* new guide: cards never friendly */
  --hq-shadow: 0 1px 2px rgba(17, 17, 17, 0.06), 0 0 0 1px var(--hairline);
  --hq-crit: #b91c1c;          /* new guide --err — functional only */
  --hq-warn: #b45309;          /* new guide --warn */
  max-width: 1100px;
  margin: 0 auto;
  padding: 3.5rem 1.5rem 5rem;
}
.hq-spine > * + * {
  margin-top: 2.75rem;
  padding-top: 2.75rem;
  border-top: 1px solid var(--hairline-2);
}

/* ── shared eyebrow / stamp register ──────────────────────────────── */
.hq-mast-eyebrow, .hq-pulse-eyebrow, .hq-trac-eyebrow,
.hq-system-eyebrow, .hq-mast-stamp, .hq-pulse-stamp, .hq-trac-stamp {
  font-family: var(--font-mono-stack);
  font-size: 11px;
  letter-spacing: 0.08em;
  text-transform: lowercase;
  color: var(--ink-quiet);
}
.hq-mast-stamp, .hq-pulse-stamp, .hq-trac-stamp { color: var(--ink-faint); }

/* ── Masthead ─────────────────────────────────────────────────────── */
.hq-mast-top {
  display: flex;
  justify-content: space-between;
  align-items: baseline;
  gap: 1rem;
}
.hq-mast-dot { color: var(--accent); }

/* Phase line — the operator's own words, now subordinate context. */
.hq-mast-phase {
  margin: 1.4rem 0 0;
  max-width: 70ch;
}
.hq-mast-phase summary {
  display: inline-flex;
  cursor: pointer;
  list-style: none;
  font-family: var(--font-mono-stack);
  font-size: 11px;
  letter-spacing: 0.05em;
  line-height: 1.6;
  text-transform: lowercase;
  color: var(--ink-faint);
  transition: color 0.12s ease-out;
}
.hq-mast-phase summary::-webkit-details-marker { display: none; }
.hq-mast-phase summary::before {
  content: "+ ";
  color: var(--ink-faint);
}
.hq-mast-phase[open] summary::before { content: "− "; }
.hq-mast-phase summary:hover { color: var(--accent); }
.hq-mast-phase p {
  margin: 0.8rem 0 0;
  font-family: var(--font-mono-stack);
  font-size: 11px;
  letter-spacing: 0.04em;
  line-height: 1.65;
  text-transform: lowercase;
  color: var(--ink-faint);
  max-width: 70ch;
}

/* The verdict — one derived sentence, the lead. */
.hq-mast-headline {
  margin: 0.55rem 0 0;
  font-size: clamp(1.85rem, 1.2rem + 2.4vw, 2.85rem);
  font-weight: 500;
  line-height: 1.12;
  letter-spacing: -0.025em;
  color: var(--ink);
  text-wrap: balance;
}
.hq-mast-headline[data-level="one-thing"] { color: var(--accent); }
.hq-mast-headline[data-level="on-fire"] { color: var(--hq-crit); }

/* The one action. */
.hq-mast-action {
  margin: 0.85rem 0 0;
  font-size: 15px;
  line-height: 1.6;
  color: var(--ink-soft);
  max-width: 60ch;
}
.hq-mast-action-arrow { color: var(--ink-quiet); }
.hq-mast-action-link {
  color: var(--ink-soft);
  text-decoration: underline;
  text-decoration-color: var(--border-soft);
  text-underline-offset: 3px;
  transition: color 0.15s, text-decoration-color 0.15s;
}
.hq-mast-action-link:hover {
  color: var(--accent);
  text-decoration-color: var(--accent);
}

/* The audit — the verdict shows its working in one click. */
.hq-mast-audit { margin-top: 1.4rem; }
.hq-mast-audit-summary {
  display: inline-flex;
  cursor: pointer;
  list-style: none;
  font-family: var(--font-mono-stack);
  font-size: 11px;
  letter-spacing: 0.06em;
  text-transform: lowercase;
  color: var(--ink-quiet);
  transition: color 0.12s ease-out;
}
.hq-mast-audit-summary::-webkit-details-marker { display: none; }
.hq-mast-audit-summary::before {
  content: "+ ";
  color: var(--ink-faint);
}
.hq-mast-audit[open] .hq-mast-audit-summary::before { content: "− "; }
.hq-mast-audit-summary:hover { color: var(--accent); }
.hq-mast-audit-list {
  list-style: none;
  margin: 1rem 0 0;
  padding: 0;
  display: grid;
  gap: 0.5rem;
  max-width: 32rem;
}
.hq-mast-audit-row {
  display: flex;
  justify-content: space-between;
  gap: 1rem;
  padding-bottom: 0.5rem;
  border-bottom: 1px solid var(--hairline-2);
  font-family: var(--font-mono-stack);
  font-size: 11px;
  letter-spacing: 0.03em;
}
.hq-mast-audit-row:last-child { border-bottom: 0; padding-bottom: 0; }
.hq-mast-audit-label {
  color: var(--ink-quiet);
  text-transform: lowercase;
}
.hq-mast-audit-value {
  color: var(--ink);
  font-variant-numeric: tabular-nums;
  text-align: right;
}
.hq-mast-nav {
  display: flex;
  flex-wrap: wrap;
  gap: 1.5rem;
  margin-top: 1.5rem;
}
.hq-mast-link {
  font-family: var(--font-mono-stack);
  font-size: 11px;
  letter-spacing: 0.04em;
  text-transform: lowercase;
  color: var(--ink);
  text-decoration: none;
  transition: color 0.12s ease-out;
}
.hq-mast-link:hover { color: var(--accent); }

/* ── shared section header (Pulse / Traction) ─────────────────────── */
.hq-pulse-header, .hq-trac-header {
  display: flex;
  justify-content: space-between;
  align-items: baseline;
  gap: 1rem;
  margin-bottom: 1.1rem;
}
.hq-pulse-counts, .hq-trac-tiers { font-size: 12px; color: var(--ink-quiet); }
.hq-pulse-count[data-level="critical"] { color: var(--hq-crit); }
.hq-pulse-count[data-level="watch"] { color: var(--hq-warn); }

/* ── Pulse rows ───────────────────────────────────────────────────── */
.hq-pulse-list { list-style: none; margin: 0; padding: 0; }
.hq-pulse-row-wrap + .hq-pulse-row-wrap { border-top: 1px solid var(--hairline-2); }
.hq-pulse-row {
  display: grid;
  grid-template-columns: 14px minmax(0, 1fr);
  grid-template-areas: "tier label" ". detail";
  column-gap: 0.85rem;
  row-gap: 0.2rem;
  padding: 0.85rem 0;
  text-decoration: none;
}
.hq-pulse-row--linked { transition: padding-left 0.16s ease-out; }
.hq-pulse-row--linked:hover { padding-left: 0.4rem; }
.hq-pulse-tier {
  grid-area: tier;
  width: 8px;
  height: 8px;
  margin-top: 0.4rem;
  border-radius: 50%;
  border: 1px solid var(--hairline);
}
.hq-pulse-tier[data-level="watch"] { background: var(--hq-warn); border-color: var(--hq-warn); }
.hq-pulse-tier[data-level="critical"] { background: var(--hq-crit); border-color: var(--hq-crit); }
.hq-pulse-label { grid-area: label; font-size: 14px; font-weight: 500; color: var(--ink); }
.hq-pulse-detail {
  grid-area: detail;
  font-family: var(--font-mono-stack);
  font-size: 11.5px;
  letter-spacing: 0.01em;
  color: var(--ink-quiet);
}
.hq-pulse--clear .hq-pulse-clear-line,
.hq-trac--off .hq-trac-off-line {
  font-size: 14px;
  color: var(--ink-soft);
  max-width: 42rem;
  margin: 0;
}

/* ── Traction ─────────────────────────────────────────────────────── */
.hq-trac-zero { font-size: 15px; color: var(--ink-soft); max-width: 42rem; margin: 0 0 1.5rem; }
.hq-trac-strong { color: var(--ink); font-weight: 500; }
.hq-trac-headline { display: flex; flex-direction: column; gap: 0.3rem; margin-bottom: 1.75rem; }
.hq-trac-band {
  font-size: clamp(2rem, 1.4rem + 2vw, 3rem);
  font-weight: 500;
  font-variant-numeric: tabular-nums;
  letter-spacing: -0.02em;
  color: var(--ink);
}
.hq-trac-band-label {
  font-family: var(--font-mono-stack);
  font-size: 11px;
  letter-spacing: 0.05em;
  text-transform: lowercase;
  color: var(--ink-quiet);
}
.hq-trac-grid {
  display: grid;
  grid-template-columns: repeat(auto-fit, minmax(150px, 1fr));
  border: 1px solid var(--hairline);
  border-radius: var(--hq-r);
  box-shadow: var(--hq-shadow);
  overflow: hidden;
}
.hq-trac-stat {
  display: flex;
  flex-direction: column;
  gap: 0.25rem;
  padding: 1.1rem 1.25rem;
  border-right: 1px solid var(--hairline-2);
  border-bottom: 1px solid var(--hairline-2);
}
.hq-trac-stat-num {
  font-size: 26px;
  font-weight: 500;
  font-variant-numeric: tabular-nums;
  color: var(--ink);
  line-height: 1;
}
.hq-trac-stat[data-accent="true"] { box-shadow: inset 2px 0 0 var(--accent); }
.hq-trac-stat-label {
  font-size: 12px;
  font-weight: 500;
  color: var(--ink);
}
.hq-trac-stat-note {
  font-family: var(--font-mono-stack);
  font-size: 10.5px;
  letter-spacing: 0.04em;
  text-transform: lowercase;
  color: var(--ink-faint);
}
.hq-trac-tiers { margin: 1.1rem 0 0; }

/* ── Burndown — the one temporal element, hairline not chrome ──────── */
.hq-trac-burn { margin-top: 1.9rem; padding-top: 1.15rem; }
.hq-trac-burn-track {
  position: relative;
  height: 2px;
  background: var(--hairline);
}
.hq-trac-burn-fill {
  position: absolute;
  left: 0;
  top: 0;
  bottom: 0;
  min-width: 1px;
  background: var(--accent);
  transition: width 0.45s cubic-bezier(0.4, 0, 0.2, 1);
}
.hq-trac-burn-track[data-pace="behind"] .hq-trac-burn-fill { background: var(--hq-warn); }
.hq-trac-burn-track[data-pace="idle"] .hq-trac-burn-fill { background: var(--ink-faint); }
.hq-trac-burn-tick {
  position: absolute;
  top: -4px;
  bottom: -4px;
  width: 1px;
}
.hq-trac-burn-tick--req { background: var(--ink); }
.hq-trac-burn-tick--req::after {
  content: "pace";
  position: absolute;
  top: -1.1rem;
  left: 50%;
  transform: translateX(-50%);
  font-family: var(--font-mono-stack);
  font-size: 9.5px;
  letter-spacing: 0.06em;
  color: var(--ink-quiet);
  white-space: nowrap;
}
.hq-trac-burn-tick--m3 { background: var(--ink-faint); }
.hq-trac-burn-tick--m3::after {
  content: "m3";
  position: absolute;
  bottom: -1.2rem;
  left: 50%;
  transform: translateX(-50%);
  font-family: var(--font-mono-stack);
  font-size: 9.5px;
  letter-spacing: 0.06em;
  color: var(--ink-faint);
}
.hq-trac-burn-caption {
  margin: 1.45rem 0 0;
  font-family: var(--font-mono-stack);
  font-size: 11px;
  letter-spacing: 0.03em;
  line-height: 1.65;
  color: var(--ink-quiet);
}
@media (prefers-reduced-motion: reduce) {
  .hq-trac-burn-fill { transition: none; }
}

/* ── Proof gate (the one scoreboard, directly under the masthead) ─── */
.hq-pg-header {
  display: flex;
  justify-content: space-between;
  align-items: baseline;
  gap: 1rem;
  margin-bottom: 1.2rem;
}
.hq-pg-eyebrow, .hq-pg-stamp {
  font-family: var(--font-mono-stack);
  font-size: 11px;
  letter-spacing: 0.08em;
  text-transform: lowercase;
  color: var(--ink-quiet);
}
.hq-pg-stamp { color: var(--ink-faint); }
.hq-pg[data-state="inert"] .hq-pg-stamp,
.hq-pg[data-state="expired"] .hq-pg-stamp { color: var(--hq-crit); }

/* The clock sentence — load-bearing, read in full. Severe when inert. */
.hq-pg-clock {
  margin: 0 0 1.75rem;
  font-size: 15px;
  line-height: 1.65;
  color: var(--ink-soft);
  max-width: 60ch;
  padding-left: 0.95rem;
  border-left: 2px solid var(--ink-faint);
}
.hq-pg[data-state="inert"] .hq-pg-clock,
.hq-pg[data-state="expired"] .hq-pg-clock {
  border-left-color: var(--hq-crit);
  color: var(--ink);
}

/* Milestone rail — the dated forcing function, horizontal. */
.hq-pg-rail {
  display: flex;
  flex-wrap: wrap;
  gap: 0.4rem 1.6rem;
  margin: 0 0 1.9rem;
  padding: 0;
  list-style: none;
}
.hq-pg-rail-item {
  display: flex;
  align-items: baseline;
  gap: 0.45rem;
  font-family: var(--font-mono-stack);
  font-size: 11px;
  letter-spacing: 0.03em;
  color: var(--ink-quiet);
}
.hq-pg-rail-dot {
  width: 5px;
  height: 5px;
  border-radius: 50%;
  background: var(--ink-faint);
  align-self: center;
}
.hq-pg-rail-item[data-done="true"] .hq-pg-rail-dot { background: var(--accent); }
.hq-pg-rail-item[data-missed="true"] .hq-pg-rail-dot { background: var(--hq-crit); }
.hq-pg-rail-item[data-missed="true"] .hq-pg-rail-date { color: var(--hq-crit); }
.hq-pg-rail-date { color: var(--ink-faint); }

/* The five metrics — a sober list, not a card grid. */
.hq-pg-metrics {
  margin: 0;
  padding: 0;
  list-style: none;
  border-top: 1px solid var(--hairline-2);
}
.hq-pg-metric {
  display: grid;
  grid-template-columns: 12rem 4.5rem 1fr;
  align-items: baseline;
  gap: 0.75rem 1.1rem;
  padding: 0.85rem 0;
  border-bottom: 1px solid var(--hairline-2);
}
.hq-pg-metric-name {
  font-family: var(--font-mono-stack);
  font-size: 12px;
  letter-spacing: 0.04em;
  text-transform: lowercase;
  color: var(--ink-soft);
}
.hq-pg-metric-num {
  font-size: 1.35rem;
  font-weight: 500;
  color: var(--ink);
  font-variant-numeric: tabular-nums;
}
.hq-pg-metric[data-met="true"] .hq-pg-metric-num { color: var(--accent); }
.hq-pg-metric-target {
  font-size: 12px;
  font-weight: 400;
  color: var(--ink-faint);
}
.hq-pg-metric-note {
  font-size: 13px;
  line-height: 1.55;
  color: var(--ink-quiet);
}
.hq-pg-metric--dark { grid-template-columns: 12rem 1fr; }
.hq-pg-metric-dark {
  font-size: 13px;
  line-height: 1.55;
  color: var(--ink-faint);
  font-style: italic;
}

.hq-pg-foot {
  margin: 1.4rem 0 0;
  font-family: var(--font-mono-stack);
  font-size: 11px;
  letter-spacing: 0.02em;
  line-height: 1.7;
  color: var(--ink-faint);
  max-width: 64ch;
}
@media (max-width: 560px) {
  .hq-pg-metric,
  .hq-pg-metric--dark {
    grid-template-columns: 1fr;
    gap: 0.25rem;
  }
}

/* ── Forcing function (the inert-clock screen) ─────────────────────── */
.hq-ff {
  padding: 2.4rem 0 0;
  max-width: 68ch;
}
.hq-ff-eyebrow {
  margin: 0;
  font-family: var(--font-mono-stack);
  font-size: 11px;
  letter-spacing: 0.06em;
  text-transform: uppercase;
  color: var(--hq-crit);
}
.hq-ff-headline {
  margin: 0.7rem 0 0;
  font-size: clamp(1.6rem, 1.1rem + 2vw, 2.4rem);
  font-weight: 600;
  letter-spacing: -0.02em;
  line-height: 1.1;
  color: var(--ink);
}
.hq-ff-clock {
  margin: 1rem 0 0;
  padding-left: 0.9rem;
  border-left: 2px solid var(--hq-crit);
  font-size: 14px;
  line-height: 1.65;
  color: var(--ink-soft);
}
.hq-ff-act {
  margin: 1.8rem 0 0;
  padding: 1.3rem;
  border: 1px solid var(--hairline);
  border-radius: var(--hq-r);
  box-shadow: var(--hq-shadow);
}
.hq-ff-act-eyebrow {
  margin: 0;
  font-family: var(--font-mono-stack);
  font-size: 11px;
  letter-spacing: 0.04em;
  text-transform: uppercase;
  color: var(--ink-faint);
}
.hq-ff-act-venue {
  margin: 0.5rem 0 0;
  font-size: 1.15rem;
  font-weight: 600;
  color: var(--ink);
}
.hq-ff-act-loc {
  font-weight: 400;
  color: var(--ink-faint);
}
.hq-ff-act-to {
  margin: 0.15rem 0 0;
  font-family: var(--font-mono-stack);
  font-size: 12px;
  color: var(--ink-soft);
}
.hq-ff-act-row {
  display: flex;
  flex-wrap: wrap;
  align-items: baseline;
  gap: 0.4rem 1rem;
  margin: 1rem 0 0;
}
.hq-ff-act-go {
  font-size: 14px;
  font-weight: 600;
  color: var(--accent);
  text-decoration: none;
  border-bottom: 1px solid var(--accent);
  padding-bottom: 1px;
}
.hq-ff-act-go:hover {
  opacity: 0.8;
}
.hq-ff-act-then {
  font-size: 12px;
  line-height: 1.55;
  color: var(--ink-faint);
  max-width: 38ch;
}
.hq-ff-act-foot {
  margin: 1rem 0 0;
  font-size: 12px;
  line-height: 1.65;
  color: var(--ink-faint);
}
.hq-ff-mono {
  font-family: var(--font-mono-stack);
  font-size: 11px;
  color: var(--ink-soft);
}
.hq-ff-deadline {
  margin: 1.4rem 0 0;
  font-size: 13px;
  font-weight: 500;
  color: var(--ink-soft);
}
.hq-ff-deadline[data-missed="true"] {
  color: var(--hq-crit);
}
.hq-ff-rest {
  margin: 2.2rem 0 0;
  border-top: 1px solid var(--hairline);
}
.hq-ff-rest-summary {
  padding: 1.2rem 0 0;
  font-family: var(--font-mono-stack);
  font-size: 12px;
  letter-spacing: 0.03em;
  color: var(--ink-faint);
  cursor: pointer;
  list-style: none;
}
.hq-ff-rest-summary::-webkit-details-marker {
  display: none;
}
.hq-ff-rest-summary::after {
  content: " ↓";
}
.hq-ff-rest[open] .hq-ff-rest-summary::after {
  content: " ↑";
}
.hq-ff-rest-note {
  margin: 0.7rem 0 0;
  font-size: 12px;
  line-height: 1.65;
  color: var(--ink-faint);
  max-width: 56ch;
}
.hq-ff-rest-body {
  margin: 1.8rem 0 0;
}
.hq-ff-rest-body > * + * {
  margin-top: 2.4rem;
}

/* ── System (the demoted dashboard, behind a disclosure) ──────────── */
.hq-system { border-top: 1px solid var(--hairline); }
.hq-system-summary {
  display: flex;
  flex-direction: column;
  gap: 0.2rem;
  padding: 1.4rem 0 0;
  cursor: pointer;
  list-style: none;
}
.hq-system-summary::-webkit-details-marker { display: none; }
.hq-system-summary::after {
  content: "open ↓";
  position: absolute;
  right: 0;
  font-family: var(--font-mono-stack);
  font-size: 11px;
  letter-spacing: 0.04em;
  color: var(--ink-faint);
}
.hq-system { position: relative; }
.hq-system[open] > .hq-system-summary::after { content: "close ↑"; }
.hq-system-summary:hover .hq-system-eyebrow { color: var(--accent); }
.hq-system-hint {
  font-size: 12px;
  color: var(--ink-quiet);
  max-width: 38rem;
}
.hq-system-body { margin-top: 1.5rem; }
/* The dashboard ships its own max-width container; the spine already
 * centres, so neutralise the double frame inside System. */
.hq-system-body main { padding: 0 !important; }
.hq-system-body .mx-auto { max-width: 100% !important; }

/* ── Mobile: the between-meetings phone glance ─────────────────────────
 * Not "the desktop reflowed". The phone question is "am I on fire / what
 * is the one thing" — so the verdict + the one action are the only
 * things that earn the first screen. Phase line is clamped so it can't
 * push the verdict down; audit and nav are pushed below; the traction
 * grid stays two-up but the burndown caption is what's actually read.
 */
@media (max-width: 640px) {
  .hq-spine { padding: 2rem 1.1rem 3.5rem; }
  .hq-spine > * + * {
    margin-top: 2rem;
    padding-top: 2rem;
  }

  /* Phase: kept, but never more than two lines above the verdict. */
  .hq-mast-phase {
    margin-top: 1rem;
  }
  .hq-mast-phase p {
    display: -webkit-box;
    -webkit-line-clamp: 2;
    -webkit-box-orient: vertical;
    overflow: hidden;
  }

  /* Verdict: still the lead, denser so a long sentence doesn't eat the
   * whole screen. */
  .hq-mast-headline {
    font-size: clamp(1.5rem, 1.1rem + 3.5vw, 1.95rem);
    line-height: 1.18;
  }
  .hq-mast-action { font-size: 14px; margin-top: 0.7rem; }

  /* Audit + nav: secondary on phone — readable, out of the way, with
   * tap-sized hit areas. */
  .hq-mast-audit { margin-top: 1.6rem; }
  .hq-mast-audit-summary { padding: 0.3rem 0; }
  .hq-mast-nav {
    gap: 0.4rem 1.25rem;
    margin-top: 1.6rem;
  }
  .hq-mast-link { padding: 0.45rem 0; }

  /* Traction: two-up grid (eight integers need a desk; the burndown
   * caption is the phone signal). */
  .hq-trac-grid { grid-template-columns: repeat(2, 1fr); }
  .hq-trac-band { font-size: clamp(1.85rem, 1.4rem + 4vw, 2.4rem); }
  .hq-trac-burn-caption { font-size: 10.5px; line-height: 1.7; }
}

/* ─── HQ Marketing hub ───────────────────────────────────────────────────
 * The six-month plan as a working surface. Same register as the atlas and
 * the masthead: paper white, ink, one indigo, hairlines, no card chrome.
 * The active tab earns the indigo edge; leverage is read from rank +
 * impact + effort + month, never from colour. The panel verdict is stated
 * once per row in restrained dot+mono — never a stoplight.
 */
/* The market-entry deck callout — the one deck the marketing hub points to. */
.mkt-deck {
  display: flex; align-items: center; justify-content: space-between; gap: 1.5rem;
  padding: 1.25rem 1.5rem; margin-bottom: 2.5rem;
  border: 1px solid var(--border-soft); border-radius: var(--r-4, 14px);
  background: var(--bg-elev); text-decoration: none;
  transition: border-color var(--motion-fast) var(--ease-out), box-shadow var(--motion-fast) var(--ease-out);
}
.mkt-deck:hover { border-color: var(--accent); box-shadow: var(--shadow-2); }
.mkt-deck-body { display: flex; flex-direction: column; gap: 0.35rem; min-width: 0; }
.mkt-deck-eyebrow {
  font-family: var(--font-mono-stack); font-size: 10.5px; letter-spacing: 0.14em;
  text-transform: uppercase; color: var(--accent); font-weight: 600;
}
.mkt-deck-title { font-size: 16px; font-weight: 600; color: var(--ink); letter-spacing: -0.01em; }
.mkt-deck-note { font-size: 13.5px; line-height: 1.5; color: var(--ink-quiet); max-width: 70ch; }
.mkt-deck-action {
  flex-shrink: 0; font-family: var(--font-mono-stack); font-size: 12px;
  color: var(--ink-soft); white-space: nowrap;
}
.mkt-deck:hover .mkt-deck-action { color: var(--accent); }
@media (max-width: 640px) {
  .mkt-deck { flex-direction: column; align-items: flex-start; gap: 1rem; }
}

.mkt-summary {
  display: flex;
  flex-wrap: wrap;
  gap: 2.5rem 3.5rem;
  padding: 1.5rem 0;
  border-top: 1px solid var(--border-soft);
  border-bottom: 1px solid var(--border-soft);
  margin-bottom: 2.5rem;
}
.mkt-stat { display: flex; flex-direction: column; gap: 0.4rem; }
.mkt-stat-n {
  font-size: 22px;
  font-weight: 500;
  color: var(--ink);
  font-variant-numeric: tabular-nums;
  line-height: 1;
}
.mkt-stat-label {
  font-family: var(--font-mono);
  font-size: 11px;
  letter-spacing: var(--tracking-eyebrow);
  text-transform: uppercase;
  color: var(--ink-quiet);
}

.mkt-tabs {
  display: flex;
  flex-wrap: wrap;
  gap: 0 2rem;
  border-bottom: 1px solid var(--border-soft);
  margin-bottom: 2rem;
}
.mkt-tab {
  appearance: none;
  background: transparent;
  border: 0;
  border-bottom: 2px solid transparent;
  margin-bottom: -1px;
  padding: 0.6rem 0;
  font-family: var(--font-mono);
  font-size: 12px;
  letter-spacing: 0.02em;
  text-transform: lowercase;
  color: var(--ink-quiet);
  cursor: pointer;
  transition: color 0.12s ease-out, border-color 0.12s ease-out;
}
.mkt-tab:hover { color: var(--ink); }
.mkt-tab:focus-visible {
  outline: 2px solid var(--accent);
  outline-offset: 3px;
}
.mkt-tab[data-active="true"] {
  color: var(--ink);
  border-bottom-color: var(--accent);
  font-weight: 500;
}
.mkt-tab-count {
  display: inline-block;
  margin-left: 0.5rem;
  padding: 0.05rem 0.4rem;
  font-size: 10px;
  border-radius: 999px;
  background: var(--bg-deep);
  color: var(--ink-quiet);
  font-variant-numeric: tabular-nums;
}
.mkt-tab[data-active="true"] .mkt-tab-count {
  background: var(--accent-soft);
  color: var(--accent-deep);
}

.mkt-bucket-head { margin-bottom: 2rem; max-width: 72ch; }
.mkt-bucket-role {
  font-size: 15px;
  font-weight: 500;
  color: var(--ink);
  margin: 0 0 0.5rem;
}
.mkt-bucket-rationale {
  font-size: 14px;
  line-height: 1.6;
  color: var(--ink-soft);
  margin: 0;
}

.mkt-list { list-style: none; margin: 0; padding: 0; }
.mkt-row {
  position: relative;
  display: grid;
  grid-template-columns: 2.75rem 1fr 12.5rem;
  gap: 1.5rem;
  align-items: start;
  padding: 1.15rem 0 1.15rem 0.9rem;
  border-top: 1px solid var(--border-soft);
}
.mkt-row:last-child { border-bottom: 1px solid var(--border-soft); }
.mkt-row::before {
  content: "";
  position: absolute;
  left: 0;
  top: 0;
  bottom: 0;
  width: 2px;
  background: var(--accent);
  transform: scaleY(0);
  transform-origin: center;
  transition: transform 0.16s ease-out;
}
.mkt-row:hover::before { transform: scaleY(1); }
.mkt-rank {
  font-family: var(--font-mono);
  font-size: 12px;
  color: var(--ink-quiet);
  font-variant-numeric: tabular-nums;
  padding-top: 0.1rem;
}
.mkt-body { min-width: 0; }
.mkt-title {
  font-size: 15px;
  font-weight: 500;
  color: var(--ink);
  margin: 0;
  line-height: 1.35;
}
.mkt-what {
  font-size: 14px;
  line-height: 1.55;
  color: var(--ink-soft);
  margin: 0.3rem 0 0;
  max-width: 62ch;
}
.mkt-edge {
  font-size: 13px;
  line-height: 1.5;
  color: var(--ink-soft);
  margin: 0.55rem 0 0;
  padding-left: 0.7rem;
  border-left: 2px solid var(--accent);
  max-width: 60ch;
}
.mkt-meta {
  display: flex;
  flex-direction: column;
  align-items: flex-end;
  gap: 0.45rem;
  text-align: right;
}
.mkt-tag {
  font-family: var(--font-mono);
  font-size: 10px;
  letter-spacing: 0.06em;
  text-transform: uppercase;
  padding: 0.12rem 0.5rem;
  border-radius: 999px;
  color: var(--ink-quiet);
  border: 1px solid var(--border-soft);
}
.mkt-tag[data-impact="Engine"] {
  color: var(--accent-deep);
  background: var(--accent-soft);
  border-color: transparent;
}
.mkt-tag[data-impact="High"] { color: var(--ink); }
.mkt-attr {
  font-family: var(--font-mono);
  font-size: 11px;
  color: var(--ink-quiet);
}
.mkt-panel-mark {
  font-family: var(--font-mono);
  font-size: 10.5px;
  color: var(--ink-quiet);
  letter-spacing: 0.02em;
}
.mkt-panel-mark b {
  color: var(--accent);
  font-weight: 600;
}
.mkt-source { float: right; }

@media (max-width: 720px) {
  .mkt-summary { gap: 1.5rem 2.5rem; }
  .mkt-tabs {
    flex-wrap: nowrap;
    overflow-x: auto;
    gap: 0 1.5rem;
    -webkit-overflow-scrolling: touch;
  }
  .mkt-tab { white-space: nowrap; }
  .mkt-row {
    grid-template-columns: 2rem 1fr;
    gap: 0.5rem 1rem;
  }
  .mkt-meta {
    grid-column: 2;
    flex-flow: row wrap;
    align-items: center;
    justify-content: flex-start;
    text-align: left;
    gap: 0.4rem 0.9rem;
    margin-top: 0.7rem;
  }
}

@media (prefers-reduced-motion: reduce) {
  .mkt-row::before { transition: none; }
  .mkt-row:hover::before { transform: scaleY(1); }
}

/* ─── HQ Marketing hub — operating tool (v2) ─────────────────────────────
 * State, the Monday queue, the timeline, the live engine funnel + the
 * concentration guardrail, and the outcome ledger. Same register: paper,
 * ink, one indigo, hairlines. Status reads from a restrained dot; the one
 * functional red is reserved for the kill-trigger breach only.
 */
.mkt-views {
  display: flex;
  flex-wrap: wrap;
  align-items: center;
  gap: 0 2rem;
  border-bottom: 1px solid var(--border-soft);
  margin-bottom: 2rem;
}
.mkt-view-tab {
  appearance: none;
  background: transparent;
  border: 0;
  border-bottom: 2px solid transparent;
  margin-bottom: -1px;
  padding: 0.7rem 0;
  font-family: var(--font-mono);
  font-size: 12px;
  letter-spacing: 0.02em;
  text-transform: lowercase;
  color: var(--ink-quiet);
  cursor: pointer;
  transition: color 0.12s ease-out, border-color 0.12s ease-out;
}
.mkt-view-tab:hover { color: var(--ink); }
.mkt-view-tab:focus-visible { outline: 2px solid var(--accent); outline-offset: 3px; }
.mkt-view-tab[data-active="true"] {
  color: var(--ink);
  border-bottom-color: var(--accent);
  font-weight: 500;
}
.mkt-hydrate {
  margin-left: auto;
  font-family: var(--font-mono);
  font-size: 10.5px;
  color: var(--ink-ghost);
}

.mkt-filters {
  display: flex;
  flex-wrap: wrap;
  align-items: center;
  gap: 1.25rem;
  padding: 0.9rem 0 1.4rem;
}
.mkt-filter { display: inline-flex; align-items: center; gap: 0.5rem; }
.mkt-filter-label {
  font-family: var(--font-mono);
  font-size: 10.5px;
  text-transform: uppercase;
  letter-spacing: var(--tracking-eyebrow);
  color: var(--ink-quiet);
}
.mkt-filter-select,
.mkt-status-select {
  appearance: none;
  background: var(--bg-elev);
  border: 1px solid var(--border-soft);
  border-radius: 4px;
  padding: 0.2rem 1.4rem 0.2rem 0.5rem;
  font-family: var(--font-mono);
  font-size: 11.5px;
  color: var(--ink);
  cursor: pointer;
  background-image: linear-gradient(45deg, transparent 50%, var(--ink-quiet) 50%),
    linear-gradient(135deg, var(--ink-quiet) 50%, transparent 50%);
  background-position: right 0.55rem center, right 0.4rem center;
  background-size: 4px 4px, 4px 4px;
  background-repeat: no-repeat;
}
.mkt-filter-select:focus-visible,
.mkt-status-select:focus-visible {
  outline: 2px solid var(--accent);
  outline-offset: 1px;
}
.mkt-status-select[data-status="shipped"] { color: var(--accent-deep); }
.mkt-status-select[data-status="killed"] { color: var(--ink-quiet); }
.mkt-filter-count {
  margin-left: auto;
  font-family: var(--font-mono);
  font-size: 11px;
  color: var(--ink-quiet);
  font-variant-numeric: tabular-nums;
}

.mkt-row-controls {
  display: flex;
  flex-wrap: wrap;
  align-items: center;
  gap: 0.7rem;
  margin-top: 0.7rem;
}
.mkt-note-add,
.mkt-quick {
  appearance: none;
  background: transparent;
  border: 1px solid var(--border-soft);
  border-radius: 999px;
  padding: 0.18rem 0.65rem;
  font-family: var(--font-mono);
  font-size: 10.5px;
  color: var(--ink-quiet);
  cursor: pointer;
  transition: color 0.12s ease-out, border-color 0.12s ease-out;
}
.mkt-note-add:hover,
.mkt-quick:hover { color: var(--accent); border-color: var(--accent); }
.mkt-note {
  flex: 1 1 100%;
  margin-top: 0.4rem;
  background: var(--bg-elev);
  border: 1px solid var(--border-soft);
  border-radius: 4px;
  padding: 0.5rem 0.65rem;
  font-family: var(--font-sans-stack, inherit);
  font-size: 13px;
  line-height: 1.5;
  color: var(--ink);
  resize: vertical;
}
.mkt-note:focus-visible { outline: 2px solid var(--accent); outline-offset: 1px; }

.mkt-dot {
  font-family: var(--font-mono);
  font-size: 10px;
  letter-spacing: 0.06em;
  text-transform: uppercase;
  padding-left: 0.85rem;
  position: relative;
  color: var(--ink-quiet);
}
.mkt-dot::before {
  content: "";
  position: absolute;
  left: 0;
  top: 50%;
  width: 6px;
  height: 6px;
  margin-top: -3px;
  border-radius: 999px;
  background: var(--ink-ghost);
}
.mkt-dot[data-status="queued"]::before { background: var(--accent); }
.mkt-dot[data-status="in-flight"]::before { background: var(--ink); }
.mkt-dot[data-status="shipped"]::before { background: var(--accent-deep); }
.mkt-dot[data-status="parked"]::before { background: var(--ink-quiet); }
.mkt-dot[data-status="killed"]::before {
  background: transparent;
  border: 1px solid var(--ink-ghost);
}

.mkt-empty {
  font-size: 14px;
  line-height: 1.6;
  color: var(--ink-soft);
  padding: 1.5rem 0;
  max-width: 64ch;
}

/* this week */
.mkt-rhythm {
  border: 1px solid var(--border-soft);
  background: var(--bg-elev);
  border-radius: 6px;
  margin-bottom: 1.75rem;
}
.mkt-rhythm-row {
  display: flex;
  gap: 1.5rem;
  padding: 0.85rem 1.1rem;
  border-bottom: 1px solid var(--border-soft);
}
.mkt-rhythm-row:last-child { border-bottom: 0; }
.mkt-rhythm-when {
  flex: 0 0 9.5rem;
  font-family: var(--font-mono);
  font-size: 11px;
  text-transform: uppercase;
  letter-spacing: var(--tracking-eyebrow);
  color: var(--ink-quiet);
}
.mkt-rhythm-what { font-size: 14px; color: var(--ink-soft); }
.mkt-queue-caption {
  font-family: var(--font-mono);
  font-size: 12px;
  color: var(--ink-quiet);
  margin-bottom: 1rem;
}
.mkt-queue-caption[data-over="true"] { color: var(--blocked, #ef4444); }

/* timeline */
.mkt-timeline {
  display: grid;
  grid-template-columns: repeat(6, 1fr);
  gap: 1px;
  background: var(--border-soft);
  border: 1px solid var(--border-soft);
  border-radius: 6px;
  overflow: hidden;
}
.mkt-tl-col { background: var(--bg-elev); padding: 0.9rem 0.9rem 1.2rem; }
.mkt-tl-head {
  display: flex;
  align-items: baseline;
  justify-content: space-between;
  font-family: var(--font-mono);
  font-size: 12px;
  font-weight: 600;
  color: var(--ink);
  padding-bottom: 0.7rem;
  border-bottom: 1px solid var(--border-soft);
  margin-bottom: 0.7rem;
}
.mkt-tl-count { font-size: 10.5px; color: var(--ink-quiet); font-weight: 400; }
.mkt-tl-list { list-style: none; margin: 0; padding: 0; }
.mkt-tl-item {
  display: flex;
  align-items: flex-start;
  gap: 0.4rem;
  padding: 0.32rem 0;
}
.mkt-tl-dot {
  flex: 0 0 auto;
  width: 6px;
  height: 6px;
  margin-top: 0.42rem;
  border-radius: 999px;
  background: var(--ink-ghost);
}
.mkt-tl-dot[data-status="queued"] { background: var(--accent); }
.mkt-tl-dot[data-status="in-flight"] { background: var(--ink); }
.mkt-tl-dot[data-status="shipped"] { background: var(--accent-deep); }
.mkt-tl-dot[data-status="parked"] { background: var(--ink-quiet); }
.mkt-tl-title { font-size: 12px; line-height: 1.4; color: var(--ink-soft); }
.mkt-tl-title[data-status="killed"] {
  text-decoration: line-through;
  color: var(--ink-ghost);
}
.mkt-tl-title[data-status="shipped"] { color: var(--ink); }

/* engine */
.mkt-engine-funnel {
  display: flex;
  flex-wrap: wrap;
  gap: 2.5rem 3.5rem;
  padding: 1.5rem 0;
  border-top: 1px solid var(--border-soft);
  border-bottom: 1px solid var(--border-soft);
  margin-bottom: 1.75rem;
}
.mkt-guard { margin-bottom: 2.25rem; }
.mkt-guard-top {
  display: flex;
  align-items: baseline;
  gap: 0.6rem;
  margin-bottom: 0.6rem;
}
.mkt-guard-pct {
  font-size: 22px;
  font-weight: 500;
  color: var(--ink);
  font-variant-numeric: tabular-nums;
}
.mkt-guard[data-band="watch"] .mkt-guard-pct { color: var(--flight, #f59e0b); }
.mkt-guard[data-band="breach"] .mkt-guard-pct { color: var(--blocked, #ef4444); }
.mkt-guard-label { font-size: 13px; color: var(--ink-soft); }
.mkt-guard-track {
  position: relative;
  height: 4px;
  background: var(--bg-deep);
  border-radius: 999px;
  overflow: hidden;
}
.mkt-guard-fill {
  position: absolute;
  left: 0;
  top: 0;
  bottom: 0;
  background: var(--accent);
  transition: width 0.3s ease-out;
}
.mkt-guard[data-band="watch"] .mkt-guard-fill { background: var(--flight, #f59e0b); }
.mkt-guard[data-band="breach"] .mkt-guard-fill { background: var(--blocked, #ef4444); }
.mkt-guard-trigger {
  position: absolute;
  left: 75%;
  top: -3px;
  bottom: -3px;
  width: 1px;
  background: var(--ink-quiet);
}
.mkt-guard-caption {
  margin-top: 0.7rem;
  font-size: 13px;
  line-height: 1.55;
  color: var(--ink-soft);
  max-width: 70ch;
}

/* ledger */
.mkt-ledger-note {
  font-size: 13.5px;
  line-height: 1.55;
  color: var(--ink);
  margin: 0.55rem 0 0;
  padding-left: 0.7rem;
  border-left: 2px solid var(--accent);
  max-width: 64ch;
}
.mkt-ledger-empty {
  font-size: 13px;
  color: var(--ink-quiet);
  font-style: normal;
  margin: 0.5rem 0 0;
}

@media (max-width: 720px) {
  .mkt-views { flex-wrap: nowrap; overflow-x: auto; gap: 0 1.4rem; }
  .mkt-view-tab { white-space: nowrap; }
  .mkt-timeline { grid-template-columns: 1fr; }
  .mkt-rhythm-row { flex-direction: column; gap: 0.3rem; }
  .mkt-rhythm-when { flex: none; }
}

@media (prefers-reduced-motion: reduce) {
  .mkt-guard-fill { transition: none; }
}

/* ════════════════════════════════════════════════════════════
   Products Mega-Panel — nav upgrade (2026-05-26)
   Full-width panel that replaces the ProductSwitcher dropdown.
   Appears below the sticky nav, spans 100% viewport width,
   content centred at max-w-[760px] to match the nav container.

   Layout: panel → inner → header row + 4-column products grid.
   Each card has: visual stage (SVG + CSS gesture) + text stack.

   Motion:
   - Panel enters: translateY(-8px→0) + opacity 0→1 in 220ms
   - Cards stagger in: translateY(-4px→0) + opacity 0→1,
     delay set inline per-card (0/55/110/165ms)
   - Gestures: mega-notes-caret / mega-tasks-pulse /
     mega-timeline-pass / mega-signal-bar-{1-4}
   ════════════════════════════════════════════════════════════ */

/* Panel shell */
.mega-panel {
  position: absolute;
  top: 100%;
  left: 0;
  right: 0;
  z-index: 50;
  background: var(--paper);
  border-bottom: 1px solid var(--hairline);
  box-shadow:
    0 20px 48px -16px rgba(17, 17, 17, 0.10),
    0 4px 12px  -4px  rgba(17, 17, 17, 0.05);
  animation: mega-panel-enter 220ms cubic-bezier(0, 0, 0.2, 1) both;
}

@keyframes mega-panel-enter {
  from { opacity: 0; transform: translateY(-8px); }
  to   { opacity: 1; transform: translateY(0); }
}

.mega-panel-inner {
  max-width: 760px;
  margin: 0 auto;
  padding: 24px 24px 28px;
}

/* Header label */
.mega-panel-header {
  font-size: 10.5px;
  font-weight: 500;
  letter-spacing: 0.09em;
  text-transform: uppercase;
  color: var(--ink-quiet);
  margin: 0 0 16px 2px;
  line-height: 1;
}

/* 4-column product grid */
.mega-products-grid {
  display: grid;
  grid-template-columns: repeat(4, 1fr);
  gap: 12px;
}

/* Individual product card */
.mega-product-card {
  display: block;
  padding: 18px 16px 16px;
  border-radius: var(--r-3, 10px);
  border: 1px solid transparent;
  text-decoration: none;
  color: var(--ink);
  background: transparent;
  cursor: pointer;
  animation: mega-card-enter 280ms cubic-bezier(0, 0, 0.2, 1) both;
  transition:
    background  180ms var(--ease-out),
    border-color 180ms var(--ease-out);
}

@keyframes mega-card-enter {
  from { opacity: 0; transform: translateY(-4px); }
  to   { opacity: 1; transform: translateY(0); }
}

.mega-product-card:hover {
  background: color-mix(in srgb, var(--accent) 5%, var(--paper));
  border-color: color-mix(in srgb, var(--accent) 18%, transparent);
}

/* Visual stage — holds the SVG gesture illustration */
.mega-product-stage {
  height: 68px;
  display: flex;
  align-items: center;
  margin-bottom: 14px;
  overflow: hidden;
}

.mega-product-svg {
  display: block;
}

/* Product name */
.mega-product-name {
  font-size: 15px;
  font-weight: 500;
  letter-spacing: -0.025em;
  line-height: 1.2;
  color: var(--ink);
  margin-bottom: 3px;
}

.mega-product-dot {
  color: var(--accent);
  margin-left: 0.5px;
}

/* Tagline */
.mega-product-tagline {
  font-size: 11.5px;
  color: var(--ink-quiet);
  letter-spacing: 0.005em;
  margin-bottom: 8px;
  line-height: 1.4;
}

/* One-line description — shows at rest, dims on hover transition */
.mega-product-description {
  font-size: 11px;
  color: var(--ink-ghost);
  line-height: 1.55;
  margin-bottom: 12px;
}

/* Hover CTA */
.mega-product-cta {
  display: flex;
  align-items: center;
  gap: 3px;
  font-size: 11px;
  font-weight: 500;
  color: var(--accent);
  opacity: 0;
  transition: opacity 160ms var(--ease-out);
}

.mega-product-card:hover .mega-product-cta {
  opacity: 1;
}

/* ── Gesture animations — mega-panel context ─────────────────
   These share the same timing as the suite-canonical keyframes
   (reveal-tasks-pulse / reveal-timeline-pass / reveal-notes-caret
   / reveal-signal-tick) but are prefixed `mega-` so they can
   be composed independently without inheriting selector specificity.
   ─────────────────────────────────────────────────────────── */

/* notes · caret blink */
.mega-notes-cursor {
  animation: mega-notes-caret 1.1s steps(1, end) infinite;
  transform-origin: center;
}

@keyframes mega-notes-caret {
  0%,  49% { opacity: 1; }
  50%, 100% { opacity: 0; }
}

/* tasks · pulse — staggered across 3 dots */
.mega-tasks-dot {
  transform-box: fill-box;
  transform-origin: center;
}
.mega-tasks-dot-1 {
  animation: mega-tasks-pulse 2.6s ease-in-out infinite 0s;
}
.mega-tasks-dot-2 {
  animation: mega-tasks-pulse 2.6s ease-in-out infinite 0.4s;
}
.mega-tasks-dot-3 {
  animation: mega-tasks-pulse 2.6s ease-in-out infinite 0.8s;
}

@keyframes mega-tasks-pulse {
  0%, 30%, 100% { transform: scale(1); }
  10%           { transform: scale(1.28); }
  20%           { transform: scale(1); }
  40%           { transform: scale(1.14); }
  50%           { transform: scale(1); }
}

/* roadmap · sweep — dot travels along the timeline track */
.mega-timeline-pass-dot {
  transform-box: fill-box;
  transform-origin: center;
  animation: mega-timeline-pass 5.4s cubic-bezier(.22, .7, .2, 1) infinite;
}

@keyframes mega-timeline-pass {
  0%   { transform: translateX(0);    opacity: 1; }
  60%  { transform: translateX(79px); opacity: 1; }
  62%  { transform: translateX(79px); opacity: 0; }
  70%  { transform: translateX(0);    opacity: 0; }
  78%  { transform: translateX(0);    opacity: 1; }
  100% { transform: translateX(0);    opacity: 1; }
}

/* analytics · tick — bars discretely jump between heights.
   transform-box: fill-box + transform-origin: bottom = scale
   from the baseline. steps(1,end) = discrete, never a glide. */
.mega-signal-bar {
  transform-box: fill-box;
  transform-origin: bottom;
}
.mega-signal-bar-1 {
  animation: mega-signal-bar1 3.6s steps(1, end) infinite 0s;
}
.mega-signal-bar-2 {
  animation: mega-signal-bar2 3.6s steps(1, end) infinite 0.9s;
}
.mega-signal-bar-3 {
  animation: mega-signal-bar3 3.6s steps(1, end) infinite 1.8s;
}
.mega-signal-bar-4 {
  animation: mega-signal-bar4 3.6s steps(1, end) infinite 0.45s;
}

@keyframes mega-signal-bar1 {
  0%   { transform: scaleY(0.55); }
  25%  { transform: scaleY(0.85); }
  50%  { transform: scaleY(0.35); }
  75%  { transform: scaleY(1.00); }
  100% { transform: scaleY(0.55); }
}
@keyframes mega-signal-bar2 {
  0%   { transform: scaleY(0.90); }
  25%  { transform: scaleY(0.45); }
  50%  { transform: scaleY(1.00); }
  75%  { transform: scaleY(0.60); }
  100% { transform: scaleY(0.90); }
}
@keyframes mega-signal-bar3 {
  0%   { transform: scaleY(0.40); }
  25%  { transform: scaleY(0.75); }
  50%  { transform: scaleY(0.55); }
  75%  { transform: scaleY(0.25); }
  100% { transform: scaleY(0.40); }
}
@keyframes mega-signal-bar4 {
  0%   { transform: scaleY(1.00); }
  25%  { transform: scaleY(0.55); }
  50%  { transform: scaleY(0.80); }
  75%  { transform: scaleY(0.40); }
  100% { transform: scaleY(1.00); }
}

/* Mobile — 2×2 grid below 640px */
@media (max-width: 640px) {
  .mega-products-grid {
    grid-template-columns: repeat(2, 1fr);
    gap: 10px;
  }
  .mega-panel-inner {
    padding: 20px 16px 24px;
  }
  .mega-product-stage {
    height: 56px;
  }
}

/* prefers-reduced-motion — kill all gesture animations */
@media (prefers-reduced-motion: reduce) {
  .mega-panel,
  .mega-product-card {
    animation: none !important;
  }
  .mega-notes-cursor,
  .mega-tasks-dot,
  .mega-timeline-pass-dot,
  .mega-signal-bar {
    animation: none !important;
  }
  .mega-notes-cursor { opacity: 1; }
  .mega-timeline-pass-dot { transform: none; }
  .mega-signal-bar { transform: scaleY(0.7); }
}

/* ═══════════════════════════════════════════════════════════════════
 * HQ Environment Shell — three signals that make internal unambiguous
 *
 * The goal: any employee, any hour, instantly knows whether they are
 * on signalstudio.ie (external, paper white) or inside Signal HQ
 * (internal, warmer register). Three independent signals compound:
 *
 *   1. Environment strip  — 28px sticky bar at top: "● SIGNAL HQ · INTERNAL"
 *      in --paper-deep (#f4f4f5). Never appears on any external surface.
 *
 *   2. Surface temperature — .hq-env-body sits on --paper-soft (#fafafa),
 *      not the pure #ffffff of the public site. The difference is subtle
 *      but consistent. The eye reads it without naming it.
 *
 *   3. Persistent nav — a 44px bar directly below the strip with the full
 *      HQ section list and a "← signalstudio.ie" escape link.
 *      The exit link is the tell: an external surface never needs it.
 *
 * All three apply site-wide via layout.tsx — even the /hq/access gate
 * shows INTERNAL before login (the content is protected; the label is not).
 * ═══════════════════════════════════════════════════════════════════ */

.hq-env {
  min-height: 100dvh;
  background: var(--paper-soft);
  display: flex;
  flex-direction: column;
}

/* ── 1. Environment strip ──────────────────────────────────────────── */
.hq-env-strip {
  position: sticky;
  top: 0;
  z-index: 100;
  height: 28px;
  /* Black-and-ink chrome — the Founder Circle register. Dark frame over
     light content, the same contrast the founder-circle review tool uses. */
  background: #0b0b0f;
  border-bottom: 1px solid rgba(255, 255, 255, 0.07);
  flex-shrink: 0;
}
.hq-env-strip-inner {
  max-width: 1100px;
  margin: 0 auto;
  padding: 0 1.5rem;
  height: 100%;
  display: flex;
  align-items: center;
  gap: 0.5rem;
}
.hq-env-pip {
  display: inline-block;
  width: 6px;
  height: 6px;
  border-radius: 50%;
  background: var(--accent);
  flex-shrink: 0;
}
.hq-env-label {
  font-family: var(--font-mono-stack);
  font-size: 10px;
  letter-spacing: 0.1em;
  text-transform: uppercase;
  color: rgba(255, 255, 255, 0.72);
}

/* ── 2. Persistent HQ nav ─────────────────────────────────────────── */
.hq-env-nav {
  position: sticky;
  top: 28px;         /* sits directly below the strip */
  z-index: 99;
  height: 44px;
  background: #0b0b0f;
  border-bottom: 1px solid rgba(255, 255, 255, 0.07);
  flex-shrink: 0;
}
.hq-env-nav-inner {
  max-width: 1100px;
  margin: 0 auto;
  padding: 0 1.5rem;
  height: 100%;
  display: flex;
  align-items: center;
  gap: 1.5rem;
}
.hq-env-nav-home {
  font-family: var(--font-mono-stack);
  font-size: 12px;
  letter-spacing: 0.04em;
  color: #ffffff;
  text-decoration: none;
  flex-shrink: 0;
  transition: color 0.12s;
}
.hq-env-nav-home:hover { color: var(--accent); }
.hq-env-nav-dot { color: var(--accent); }

.hq-env-nav-links {
  display: flex;
  align-items: center;
  gap: 0.25rem;
  flex: 1;
  overflow-x: auto;
  scrollbar-width: none;
}
.hq-env-nav-links::-webkit-scrollbar { display: none; }

.hq-env-nav-link {
  font-family: var(--font-mono-stack);
  font-size: 11px;
  letter-spacing: 0.04em;
  color: rgba(255, 255, 255, 0.72);
  text-decoration: none;
  padding: 0.25rem 0.6rem;
  border-radius: 3px;
  transition: color 0.12s, background 0.12s;
  white-space: nowrap;
}
.hq-env-nav-link:hover {
  color: #ffffff;
  background: rgba(255, 255, 255, 0.06);
}

.hq-env-nav-exit {
  font-family: var(--font-mono-stack);
  font-size: 11px;
  letter-spacing: 0.04em;
  color: rgba(255, 255, 255, 0.72);
  text-decoration: none;
  white-space: nowrap;
  flex-shrink: 0;
  padding: 0.25rem 0.6rem;
  border-radius: 3px;
  transition: color 0.12s, background 0.12s;
}
.hq-env-nav-exit:hover {
  color: rgba(255, 255, 255, 0.7);
  background: rgba(255, 255, 255, 0.06);
}

/* ── 3. Body — the warm surface temperature ────────────────────────── */
.hq-env-body {
  flex: 1;
  background: var(--paper-soft);
}

/* Mobile: collapse nav links to a scrollable strip */
@media (max-width: 640px) {
  .hq-env-nav-inner { gap: 0.75rem; }
  .hq-env-nav-exit { display: none; }
}

/* ═══════════════════════════════════════════════════════════════════
 * THE VAULT — /hq/vault (+ /hq/vault/[slug])
 * ───────────────────────────────────────────────────────────────────
 * The one room that runs fully on the Founder Circle register: black-and
 * -ink, indigo used once per element, seroff-free. It is the single index
 * of everything the operator needs. Self-contained (.vault-*) so it never
 * fights the light operating surfaces it sits beside.
 * ═══════════════════════════════════════════════════════════════════ */

.vault-shell {
  background: #0b0b0f;
  color: rgba(255, 255, 255, 0.92);
  min-height: calc(100dvh - 72px);
  width: 100%;
  font-family: var(--font-sans-stack);
  -webkit-font-smoothing: antialiased;
}

/* ── Hero ──────────────────────────────────────────────────────────── */
.vault-hero {
  max-width: 1040px;
  margin: 0 auto;
  padding: 5rem 1.5rem 2.75rem;
}
.vault-hero-mark {
  width: 10px;
  height: 10px;
  border-radius: 50%;
  background: var(--accent);
  box-shadow: 0 0 0 6px rgba(79, 70, 229, 0.12), 0 0 24px rgba(79, 70, 229, 0.5);
  margin-bottom: 2.25rem;
}
.vault-kicker {
  display: block;
  font-family: var(--font-mono-stack);
  font-size: 11px;
  letter-spacing: 0.16em;
  text-transform: uppercase;
  color: rgba(255, 255, 255, 0.4);
  margin-bottom: 0.9rem;
}
.vault-title {
  font-size: clamp(2.4rem, 5vw, 3.6rem);
  font-weight: 500;
  letter-spacing: -0.03em;
  line-height: 1.02;
  color: #ffffff;
}
.vault-title span { color: var(--accent); }
.vault-lede {
  max-width: 62ch;
  margin-top: 1.25rem;
  font-size: clamp(1rem, 0.95rem + 0.3vw, 1.12rem);
  line-height: 1.7;
  color: rgba(255, 255, 255, 0.62);
}
.vault-stat {
  margin-top: 1.4rem;
  font-family: var(--font-mono-stack);
  font-size: 12px;
  letter-spacing: 0.04em;
  color: rgba(255, 255, 255, 0.36);
}
.vault-jump {
  display: flex;
  flex-wrap: wrap;
  gap: 0.5rem;
  margin-top: 2.25rem;
}
.vault-jump-link {
  font-family: var(--font-mono-stack);
  font-size: 11px;
  letter-spacing: 0.04em;
  color: rgba(255, 255, 255, 0.55);
  text-decoration: none;
  padding: 0.4rem 0.75rem;
  border: 1px solid rgba(255, 255, 255, 0.12);
  border-radius: 999px;
  transition: color 0.14s, border-color 0.14s, background 0.14s;
}
.vault-jump-link:hover {
  color: #ffffff;
  border-color: rgba(79, 70, 229, 0.7);
  background: rgba(79, 70, 229, 0.1);
}

/* ── Domains ───────────────────────────────────────────────────────── */
.vault-domains {
  max-width: 1040px;
  margin: 0 auto;
  padding: 1.5rem 1.5rem 5rem;
  display: flex;
  flex-direction: column;
  gap: 3.25rem;
}
.vault-domain { scroll-margin-top: 92px; }
.vault-domain-head {
  display: flex;
  gap: 1.1rem;
  border-top: 1px solid rgba(255, 255, 255, 0.1);
  padding-top: 1.5rem;
  margin-bottom: 1.1rem;
}
.vault-domain-kicker {
  font-family: var(--font-mono-stack);
  font-size: 12px;
  letter-spacing: 0.1em;
  color: var(--accent);
  flex-shrink: 0;
  padding-top: 0.35rem;
}
.vault-domain-label {
  font-size: 1.45rem;
  font-weight: 500;
  letter-spacing: -0.02em;
  color: #ffffff;
}
.vault-domain-blurb {
  max-width: 66ch;
  margin-top: 0.45rem;
  font-size: 0.94rem;
  line-height: 1.6;
  color: rgba(255, 255, 255, 0.5);
}

/* ── Rows ──────────────────────────────────────────────────────────── */
.vault-rows {
  display: flex;
  flex-direction: column;
  border-top: 1px solid rgba(255, 255, 255, 0.07);
}
.vault-row {
  display: flex;
  align-items: center;
  justify-content: space-between;
  gap: 1.5rem;
  padding: 0.95rem 0.5rem;
  border-bottom: 1px solid rgba(255, 255, 255, 0.07);
  text-decoration: none;
  color: inherit;
  transition: background 0.14s, padding-left 0.14s;
}
a.vault-row:hover {
  background: rgba(255, 255, 255, 0.03);
  padding-left: 0.85rem;
}
.vault-row[data-kind="source"] { cursor: default; }
.vault-row-main {
  display: flex;
  flex-direction: column;
  gap: 0.22rem;
  min-width: 0;
}
.vault-row-title {
  font-size: 0.98rem;
  font-weight: 450;
  color: #ffffff;
}
.vault-row[data-kind="source"] .vault-row-title { color: rgba(255, 255, 255, 0.78); }
.vault-row-note {
  font-size: 0.85rem;
  line-height: 1.5;
  color: rgba(255, 255, 255, 0.45);
}
.vault-row-side {
  display: flex;
  align-items: center;
  gap: 1rem;
  flex-shrink: 0;
}
.vault-row-go {
  font-family: var(--font-mono-stack);
  font-size: 11px;
  color: rgba(255, 255, 255, 0.4);
  white-space: nowrap;
  transition: color 0.14s;
}
a.vault-row:hover .vault-row-go { color: var(--accent); }
.vault-row-src,
.vault-doc-src {
  font-family: var(--font-mono-stack);
  font-size: 10.5px;
  color: rgba(255, 255, 255, 0.32);
  white-space: nowrap;
  overflow: hidden;
  text-overflow: ellipsis;
  max-width: 38ch;
}

/* ── State tags ────────────────────────────────────────────────────── */
.vault-tag {
  font-family: var(--font-mono-stack);
  font-size: 9.5px;
  letter-spacing: 0.08em;
  text-transform: uppercase;
  padding: 0.2rem 0.46rem;
  border-radius: 4px;
  border: 1px solid rgba(255, 255, 255, 0.16);
  color: rgba(255, 255, 255, 0.5);
  white-space: nowrap;
}
.vault-tag[data-state="live"],
.vault-tag[data-state="ready"] {
  color: #4ade80;
  border-color: rgba(34, 197, 94, 0.32);
  background: rgba(34, 197, 94, 0.08);
}
.vault-tag[data-state="draft"] {
  color: #f59e0b;
  border-color: rgba(217, 119, 6, 0.34);
  background: rgba(217, 119, 6, 0.08);
}
.vault-tag[data-state="private"] {
  color: #a5b4fc;
  border-color: rgba(79, 70, 229, 0.4);
  background: rgba(79, 70, 229, 0.12);
}
.vault-tag[data-state="parked"],
.vault-tag[data-state="source"] {
  color: rgba(255, 255, 255, 0.42);
  border-color: rgba(255, 255, 255, 0.14);
}

/* ── Hub footer ────────────────────────────────────────────────────── */
.vault-foot {
  max-width: 1040px;
  margin: 0 auto;
  padding: 0 1.5rem 5rem;
  display: flex;
  align-items: center;
  justify-content: space-between;
  gap: 1.5rem;
}
.vault-foot-back,
.vault-doc-back {
  font-family: var(--font-mono-stack);
  font-size: 12px;
  letter-spacing: 0.04em;
  color: var(--accent);
  text-decoration: none;
  white-space: nowrap;
}
.vault-foot-back:hover,
.vault-doc-back:hover { text-decoration: underline; }
.vault-foot-note {
  font-family: var(--font-mono-stack);
  font-size: 11px;
  line-height: 1.5;
  color: rgba(255, 255, 255, 0.36);
  max-width: 54ch;
  text-align: right;
}

/* ── Document page ─────────────────────────────────────────────────── */
.vault-doc {
  max-width: 760px;
  margin: 0 auto;
  padding: 3.5rem 1.5rem 5rem;
}
.vault-doc-crumb {
  display: flex;
  align-items: center;
  gap: 0.55rem;
  font-family: var(--font-mono-stack);
  font-size: 11px;
  letter-spacing: 0.04em;
  color: rgba(255, 255, 255, 0.4);
  margin-bottom: 2rem;
}
.vault-doc-crumb a { color: var(--accent); text-decoration: none; }
.vault-doc-crumb a:hover { text-decoration: underline; }
.vault-doc-head {
  border-bottom: 1px solid rgba(255, 255, 255, 0.1);
  padding-bottom: 1.6rem;
  margin-bottom: 2.5rem;
}
.vault-doc-title {
  font-size: clamp(1.8rem, 4vw, 2.6rem);
  font-weight: 500;
  letter-spacing: -0.025em;
  line-height: 1.1;
  color: #ffffff;
}
.vault-doc-note {
  margin-top: 0.7rem;
  font-size: 1.02rem;
  line-height: 1.6;
  color: rgba(255, 255, 255, 0.56);
  max-width: 60ch;
}
.vault-doc-tags {
  display: flex;
  align-items: center;
  flex-wrap: wrap;
  gap: 0.85rem;
  margin-top: 1.2rem;
}
.vault-doc-meta {
  font-family: var(--font-mono-stack);
  font-size: 11px;
  color: rgba(255, 255, 255, 0.42);
}
.vault-doc-src { max-width: none; }

/* ── Prose ─────────────────────────────────────────────────────────── */
.vault-prose {
  color: rgba(255, 255, 255, 0.74);
  font-size: 1rem;
  line-height: 1.78;
}
.vault-prose > :first-child { margin-top: 0; }
.vault-prose h1 {
  font-size: 1.7rem;
  font-weight: 550;
  letter-spacing: -0.02em;
  color: #ffffff;
  margin: 2.6rem 0 1rem;
}
.vault-prose h2 {
  font-size: 1.34rem;
  font-weight: 550;
  letter-spacing: -0.015em;
  color: #ffffff;
  margin: 2.4rem 0 0.85rem;
  padding-top: 1.3rem;
  border-top: 1px solid rgba(255, 255, 255, 0.08);
}
.vault-prose h3 {
  font-size: 1.1rem;
  font-weight: 550;
  color: rgba(255, 255, 255, 0.92);
  margin: 1.7rem 0 0.6rem;
}
.vault-prose h4 {
  font-size: 0.95rem;
  font-weight: 600;
…
.bp-function-head { display: flex; align-items: baseline; justify-content: space-between; gap: 10px; }
.bp-function-owner { font-size: 11.5px; color: var(--bp-faint); white-space: nowrap; }
.bp-function-director { margin: 4px 0 12px; font-family: var(--font-mono-stack); font-size: 11px; color: var(--bp-accent); }
.bp-function-rows { margin: 12px 0; }
.bp-row { display: flex; justify-content: space-between; gap: 12px; padding: 6px 0; border-top: 1px solid var(--bp-line-2); }
.bp-row-label { font-family: var(--font-mono-stack); font-size: 10px; letter-spacing: 0.1em; text-transform: uppercase; color: var(--bp-quiet); }
.bp-row-value { font-size: 12.5px; color: var(--bp-soft); text-align: right; }
.bp-function .bp-field { margin-top: 12px; }
.bp-risk-line { margin: 14px 0 0; font-size: 12.5px; color: var(--bp-faint); line-height: 1.5; padding-top: 12px; border-top: 1px dashed var(--bp-line); }
.bp-risk-line span { color: var(--bp-warn); font-family: var(--font-mono-stack); font-size: 10px; letter-spacing: 0.1em; text-transform: uppercase; margin-right: 6px; }

/* ── 6 · AI Directors ───────────────────────────────────────────────── */
.bp-directors { display: grid; grid-template-columns: repeat(auto-fit, minmax(280px, 1fr)); gap: 14px; }
.bp-director-cluster { border: 1px solid var(--bp-line); border-radius: var(--r-4, 14px); padding: 16px; background: var(--bp-panel); }
.bp-director-cluster-head { display: flex; align-items: center; justify-content: space-between; }
.bp-director-count { font-family: var(--font-mono-stack); font-size: 12px; color: var(--bp-accent); }
.bp-director-cluster-sub { font-size: 12px; color: var(--bp-faint); margin: 5px 0 12px; line-height: 1.45; }
.bp-director-chips { list-style: none; margin: 0; padding: 0; display: flex; flex-wrap: wrap; gap: 7px; }
.bp-director-chip {
  display: inline-flex; align-items: center; gap: 7px; text-decoration: none;
  padding: 6px 11px; border: 1px solid var(--bp-line); border-radius: var(--r-pill, 999px);
  background: var(--bp-bg-2); transition: border-color var(--motion-fast, 140ms), background var(--motion-fast, 140ms);
}
.bp-director-chip:hover { border-color: var(--bp-accent); background: var(--bp-accent-bg); }
.bp-director-name { font-size: 12.5px; font-weight: 600; color: var(--bp-ink); }
.bp-director-product { font-family: var(--font-mono-stack); font-size: 9px; color: var(--bp-accent); text-transform: uppercase; letter-spacing: 0.06em; }
.bp-director-cadence { font-family: var(--font-mono-stack); font-size: 9.5px; color: var(--bp-quiet); }
.bp-seats { display: flex; flex-wrap: wrap; gap: 6px; margin-top: 12px; }

/* ── 7 · Automation ─────────────────────────────────────────────────── */
.bp-absorbed-head { display: flex; align-items: center; justify-content: space-between; gap: 10px; margin-bottom: 4px; }
.bp-mode {
  font-family: var(--font-mono-stack); font-size: 9.5px; letter-spacing: 0.06em; text-transform: uppercase;
  padding: 3px 8px; border-radius: var(--r-pill, 999px); border: 1px solid var(--bp-line); white-space: nowrap;
}
.bp-mode[data-mode="automated"] { color: var(--bp-done); border-color: rgba(74, 222, 128, 0.28); }
.bp-mode[data-mode="ai-assisted"] { color: var(--bp-accent); border-color: rgba(109, 99, 245, 0.32); }
.bp-mode[data-mode="human-gate"] { color: var(--bp-warn); border-color: rgba(227, 179, 65, 0.3); }
.bp-absorbed-surface { margin: 10px 0 0; font-family: var(--font-mono-stack); font-size: 11px; color: var(--bp-quiet); }

/* ── 8 · Metrics ────────────────────────────────────────────────────── */
.bp-metrics {
  display: grid; grid-template-columns: repeat(auto-fill, minmax(168px, 1fr)); gap: 1px;
  border: 1px solid var(--bp-line); border-radius: var(--r-4, 14px); overflow: hidden; background: var(--bp-line);
}
.bp-metric { background: var(--bp-bg-2); padding: 18px 16px; display: flex; flex-direction: column; gap: 4px; transition: background var(--motion-base, 220ms); }
.bp-metric:hover { background: var(--bp-panel-2); }
.bp-metric-value { font-size: 26px; font-weight: 600; letter-spacing: -0.02em; color: var(--bp-ink); line-height: 1; }
.bp-metric[data-tone="accent"] .bp-metric-value { color: var(--bp-accent); }
.bp-metric[data-tone="critical"] .bp-metric-value { color: var(--bp-crit); }
.bp-metric-label { font-size: 13px; color: var(--bp-soft); font-weight: 500; margin-top: 6px; }
.bp-metric-target { font-family: var(--font-mono-stack); font-size: 10.5px; color: var(--bp-faint); }
.bp-metric-source { font-family: var(--font-mono-stack); font-size: 10px; color: var(--bp-quiet); margin-top: 2px; }
/* Live overlay: a metric reading from a real source this render. Placeholder
   metrics ("—") stay muted; live ones lift to full ink and carry a dot. */
.bp-metric[data-live="true"] .bp-metric-value { color: var(--bp-ink); }
.bp-metric[data-live="true"][data-tone="accent"] .bp-metric-value { color: var(--bp-accent); }
.bp-metric[data-live="true"][data-tone="critical"] .bp-metric-value { color: var(--bp-crit); }
.bp-metric[data-live="true"] .bp-metric-source { color: var(--bp-faint); }
.bp-metric-live {
  display: inline-block; width: 6px; height: 6px; margin-left: 7px; vertical-align: middle;
  border-radius: 999px; background: var(--bp-done);
  box-shadow: 0 0 0 0 rgba(74, 222, 128, 0.5); animation: bp-live-pulse 2.4s ease-out infinite;
}
@keyframes bp-live-pulse {
  0% { box-shadow: 0 0 0 0 rgba(74, 222, 128, 0.45); }
  70% { box-shadow: 0 0 0 6px rgba(74, 222, 128, 0); }
  100% { box-shadow: 0 0 0 0 rgba(74, 222, 128, 0); }
}
@media (prefers-reduced-motion: reduce) { .bp-metric-live { animation: none; } }

/* ── 9 · Risk & decision log ────────────────────────────────────────── */
.bp-log { position: relative; }
.bp-log-title { padding-left: 14px; position: relative; }
.bp-log-title::before { content: ""; position: absolute; left: 0; top: 3px; bottom: 3px; width: 3px; border-radius: 2px; background: var(--bp-line-str); }
.bp-log[data-tone="critical"] .bp-log-title::before { background: var(--bp-crit); }
.bp-log[data-tone="warn"] .bp-log-title::before { background: var(--bp-warn); }
.bp-log[data-tone="done"] .bp-log-title::before { background: var(--bp-done); }
.bp-log-list { list-style: none; margin: 14px 0 0; padding: 0; display: flex; flex-direction: column; }
.bp-log-item { padding: 10px 0; border-top: 1px solid var(--bp-line-2); display: flex; flex-direction: column; gap: 3px; }
.bp-log-item:first-child { border-top: 0; padding-top: 0; }
.bp-log-label { font-size: 13px; font-weight: 600; color: var(--bp-ink); }
.bp-log-detail { font-size: 12.5px; color: var(--bp-faint); line-height: 1.45; }
.bp-dependency { border-left: 2px solid var(--bp-accent); }

/* ── 10 · Cadence ───────────────────────────────────────────────────── */
.bp-cadence { display: grid; grid-template-columns: repeat(auto-fit, minmax(190px, 1fr)); gap: 14px; }
.bp-cadence-beat { display: flex; flex-direction: column; }
.bp-rhythm { font-family: var(--font-mono-stack); font-size: 10px; letter-spacing: 0.14em; text-transform: uppercase; color: var(--bp-accent); margin-bottom: 8px; }
.bp-cadence-q { font-size: 13px; color: var(--bp-soft); line-height: 1.5; margin: 8px 0 0; }
.bp-cadence-meta { margin: 14px 0 0; padding-top: 12px; border-top: 1px solid var(--bp-line-2); display: flex; flex-direction: column; gap: 4px; }
.bp-cadence-meta > span:first-child { font-size: 12px; color: var(--bp-faint); }
.bp-cadence-out { font-family: var(--font-mono-stack); font-size: 11px; color: var(--bp-quiet); }

/* ── Footer ─────────────────────────────────────────────────────────── */
.bp-footer {
  margin-top: 40px; padding-top: 20px; border-top: 1px solid var(--bp-line);
  display: flex; flex-wrap: wrap; align-items: center; gap: 12px;
  font-family: var(--font-mono-stack); font-size: 11.5px; color: var(--bp-quiet);
}
.bp-footer-dot { opacity: 0.5; }

/* ── Motion + responsive ────────────────────────────────────────────── */
@media (prefers-reduced-motion: reduce) {
  .bp-canvas { transition: none; }
  .blueprint-os * { scroll-behavior: auto; }
}
@media (max-width: 1079px) {
  .bp-controls { right: 16px; bottom: 18px; }
}
@media (max-width: 600px) {
  .bp-section-head { gap: 12px; }
  .bp-northstar { grid-template-columns: 1fr; }
  .bp-canvas { padding-bottom: 96px; }
}

/* ════════════════════════════════════════════════════════════════════
   SIGNAL HQ — next-level layer (2026-06-16)
   The living dot, the ⌘K palette, count-up motion, and the staggered
   room reveal. Same light register as the rest of HQ: paper, ink, one
   indigo, hairlines. Motion encodes meaning (freshness, change), never
   decoration — and every animation yields to prefers-reduced-motion.
   ════════════════════════════════════════════════════════════════════ */

/* ── The living status dot ──────────────────────────────────────────── */
.hq-statusdot { position: relative; display: inline-flex; align-items: center; }
.hq-statusdot-btn {
  display: inline-flex; align-items: center; justify-content: center;
  width: 22px; height: 22px; margin: 0 2px; padding: 0;
  background: transparent; border: 0; border-radius: var(--r-pill); cursor: pointer;
}
.hq-statusdot-btn:focus-visible { outline: 2px solid var(--accent); outline-offset: 2px; }
.hq-statusdot-dot {
  width: 8px; height: 8px; border-radius: var(--r-pill);
  background: rgba(255, 255, 255, 0.3);
  box-shadow: 0 0 0 0 transparent;
  transition: background var(--motion-base) var(--ease-out);
}
/* Verdict colour language, tuned for the dark HQ chrome the dot lives in:
   calm = quiet white · one-thing = the indigo accent (as the strip pip) ·
   on-fire = the functional red. Same meaning as the light masthead. */
.hq-statusdot[data-level="calm"] .hq-statusdot-dot { background: rgba(255, 255, 255, 0.55); animation: hq-breath 3.6s ease-in-out infinite; }
.hq-statusdot[data-level="one-thing"] .hq-statusdot-dot { background: var(--accent); animation: hq-breath 3s ease-in-out infinite; }
.hq-statusdot[data-level="on-fire"] .hq-statusdot-dot { background: #dc2626; animation: hq-pulse-fire 1.8s ease-out infinite; }
.hq-statusdot[data-level="idle"] .hq-statusdot-dot { background: transparent; box-shadow: inset 0 0 0 1.5px rgba(255, 255, 255, 0.22); }
@keyframes hq-breath {
  0%, 100% { box-shadow: 0 0 0 0 color-mix(in srgb, currentColor 0%, transparent); opacity: 0.9; }
  50% { opacity: 1; }
}
@keyframes hq-pulse-fire {
  0% { box-shadow: 0 0 0 0 rgba(220, 38, 38, 0.45); }
  70% { box-shadow: 0 0 0 7px rgba(220, 38, 38, 0); }
  100% { box-shadow: 0 0 0 0 rgba(220, 38, 38, 0); }
}
.hq-statusdot-pop {
  position: absolute; top: calc(100% + 10px); left: 0; z-index: 60;
  width: min(320px, 78vw); padding: 14px 15px;
  background: var(--bg-elev); border: 1px solid var(--border-soft);
  border-radius: var(--r-3); box-shadow: var(--shadow-3);
  animation: hq-pop-in var(--motion-fast) var(--ease-out);
}
@keyframes hq-pop-in { from { opacity: 0; transform: translateY(-4px); } to { opacity: 1; transform: translateY(0); } }
.hq-statusdot-pop-level {
  display: inline-block; font-family: var(--font-mono-stack); font-size: 9.5px;
  letter-spacing: 0.14em; text-transform: uppercase; color: var(--ink-quiet); margin-bottom: 7px;
}
.hq-statusdot-pop-level[data-level="one-thing"] { color: var(--accent); }
.hq-statusdot-pop-level[data-level="on-fire"] { color: #dc2626; }
.hq-statusdot-pop-headline { margin: 0 0 6px; font-size: 14px; font-weight: 600; line-height: 1.4; color: var(--ink); }
.hq-statusdot-pop-action { margin: 0; font-size: 12.5px; line-height: 1.5; color: var(--ink-quiet); text-decoration: none; display: block; }
a.hq-statusdot-pop-action:hover { color: var(--accent); }
.hq-statusdot-pop-stamp { display: block; margin-top: 9px; font-family: var(--font-mono-stack); font-size: 10px; color: var(--ink-ghost); }

/* ── The ⌘K trigger in the nav (dark chrome) ─────────────────────────── */
.hq-env-nav-cmdk {
  display: inline-flex; align-items: center; gap: 7px; flex-shrink: 0;
  padding: 4px 8px 4px 11px; background: transparent;
  border: 1px solid rgba(255, 255, 255, 0.15); border-radius: var(--r-pill);
  font-family: var(--font-mono-stack); font-size: 11px; letter-spacing: 0.04em;
  color: rgba(255, 255, 255, 0.45); cursor: pointer;
  transition: border-color 0.12s, color 0.12s;
}
.hq-env-nav-cmdk:hover { border-color: var(--accent); color: #ffffff; }
.hq-env-nav-cmdk kbd {
  font-family: var(--font-mono-stack); font-size: 10px; color: rgba(255, 255, 255, 0.6);
  background: rgba(255, 255, 255, 0.08); border: 1px solid rgba(255, 255, 255, 0.14);
  border-radius: var(--r-1); padding: 1px 5px;
}
@media (max-width: 720px) { .hq-env-nav-cmdk { display: none; } }

/* ── The ⌘K command palette ──────────────────────────────────────────── */
.hq-cmdk {
  position: fixed; inset: 0; z-index: 200;
  display: flex; align-items: flex-start; justify-content: center;
  padding: clamp(60px, 14vh, 160px) 16px 16px;
  background: color-mix(in srgb, var(--ink) 32%, transparent);
  backdrop-filter: blur(3px); -webkit-backdrop-filter: blur(3px);
  animation: hq-cmdk-fade var(--motion-fast) var(--ease-out);
}
@keyframes hq-cmdk-fade { from { opacity: 0; } to { opacity: 1; } }
.hq-cmdk-panel {
  width: min(560px, 100%); max-height: 64vh; display: flex; flex-direction: column;
  background: var(--bg-elev); border: 1px solid var(--border-soft);
  border-radius: var(--r-4); box-shadow: var(--shadow-3); overflow: hidden;
  animation: hq-cmdk-rise var(--motion-base) var(--ease-out);
}
@keyframes hq-cmdk-rise { from { opacity: 0; transform: translateY(-8px) scale(0.99); } to { opacity: 1; transform: translateY(0) scale(1); } }
.hq-cmdk-search { display: flex; align-items: center; gap: 10px; padding: 13px 15px; border-bottom: 1px solid var(--border-soft); }
.hq-cmdk-prompt { font-family: var(--font-mono-stack); font-size: 11px; letter-spacing: 0.1em; text-transform: uppercase; color: var(--ink-quiet); white-space: nowrap; }
.hq-cmdk-prompt-dot { color: var(--accent); }
.hq-cmdk-input { flex: 1; min-width: 0; border: 0; background: transparent; font-size: 15px; color: var(--ink); outline: none; }
.hq-cmdk-input::placeholder { color: var(--ink-ghost); }
.hq-cmdk-esc { font-family: var(--font-mono-stack); font-size: 10px; color: var(--ink-quiet); border: 1px solid var(--border-soft); border-radius: var(--r-1); padding: 2px 6px; }
.hq-cmdk-list { list-style: none; margin: 0; padding: 6px; overflow-y: auto; }
.hq-cmdk-row {
  display: flex; align-items: baseline; gap: 10px; width: 100%; text-align: left;
  padding: 10px 11px; background: transparent; border: 0; border-radius: var(--r-2); cursor: pointer;
}
.hq-cmdk-row[data-active="true"] { background: var(--accent-soft); }
.hq-cmdk-row-label { font-size: 13.5px; font-weight: 600; color: var(--ink); white-space: nowrap; }
.hq-cmdk-row[data-active="true"] .hq-cmdk-row-label { color: var(--accent-deep); }
.hq-cmdk-row-hint { font-size: 12.5px; color: var(--ink-quiet); overflow: hidden; text-overflow: ellipsis; white-space: nowrap; }
.hq-cmdk-empty { padding: 18px 12px; font-size: 13px; color: var(--ink-quiet); }
.hq-cmdk-foot { display: flex; gap: 16px; padding: 9px 15px; border-top: 1px solid var(--border-soft); font-size: 11px; color: var(--ink-ghost); }
.hq-cmdk-foot kbd { font-family: var(--font-mono-stack); font-size: 10px; color: var(--ink-quiet); margin-right: 3px; }

/* ── Staggered room reveal (hub board + metrics) ─────────────────────── */
.hq-hub-grid .hq-hub-card, .hq-os-metrics .hq-os-metric {
  animation: hq-rise var(--motion-moderate) var(--ease-out) both;
}
.hq-os-metrics .hq-os-metric:nth-child(n) { animation-delay: 0ms; }
.hq-hub-grid .hq-hub-card:nth-child(1) { animation-delay: 30ms; }
.hq-hub-grid .hq-hub-card:nth-child(2) { animation-delay: 70ms; }
.hq-hub-grid .hq-hub-card:nth-child(3) { animation-delay: 110ms; }
.hq-hub-grid .hq-hub-card:nth-child(4) { animation-delay: 150ms; }
.hq-hub-grid .hq-hub-card:nth-child(5) { animation-delay: 190ms; }
.hq-hub-grid .hq-hub-card:nth-child(6) { animation-delay: 230ms; }
.hq-hub-grid .hq-hub-card:nth-child(7) { animation-delay: 270ms; }
.hq-hub-grid .hq-hub-card:nth-child(n+8) { animation-delay: 300ms; }
@keyframes hq-rise { from { opacity: 0; transform: translateY(8px); } to { opacity: 1; transform: translateY(0); } }

@media (prefers-reduced-motion: reduce) {
  .hq-statusdot-dot { animation: none !important; }
  .hq-cmdk, .hq-cmdk-panel, .hq-statusdot-pop { animation: none !important; }
  .hq-hub-grid .hq-hub-card, .hq-os-metrics .hq-os-metric { animation: none !important; opacity: 1; transform: none; }
}

/* ════════════════════════════════════════════════════════════════════
   SIGNAL HQ — launch readiness + data room (2026-06-18)
   Light register: paper, ink, one indigo, hairlines. A clear gate is the
   one place green is earned; pending stays quiet ink.
   ════════════════════════════════════════════════════════════════════ */

/* ── Launch readiness countdown ──────────────────────────────────────── */
.hq-launch {
  display: grid; grid-template-columns: minmax(180px, 240px) 1fr; gap: clamp(20px, 4vw, 48px);
  align-items: center; margin: 0 0 2.5rem; padding: 22px 24px;
  border: 1px solid var(--border-soft); border-radius: var(--r-4, 14px); background: var(--bg-elev);
}
.hq-launch-clock { display: flex; flex-direction: column; gap: 4px; }
.hq-launch-days { font-size: clamp(40px, 7vw, 56px); font-weight: 600; line-height: 1; letter-spacing: -0.03em; color: var(--ink); }
.hq-launch-days-unit { font-size: 20px; font-weight: 500; color: var(--ink-quiet); letter-spacing: -0.01em; }
.hq-launch-sub { font-size: 13px; color: var(--ink-quiet); }
.hq-launch-gatecount {
  margin-top: 6px; font-family: var(--font-mono-stack); font-size: 11px; letter-spacing: 0.04em;
  color: var(--ink-quiet);
}
.hq-launch-gatecount[data-all-clear="true"] { color: #16a34a; }
.hq-launch-gates { list-style: none; margin: 0; padding: 0; display: flex; flex-direction: column; }
.hq-launch-gate { border-top: 1px solid var(--border-soft); }
.hq-launch-gate:first-child { border-top: 0; }
.hq-launch-gate-link, .hq-launch-gate > .hq-launch-gate-dot {
  display: grid; grid-template-columns: 14px 180px 1fr; align-items: baseline; gap: 12px;
  padding: 11px 0; text-decoration: none;
}
.hq-launch-gate-link { color: inherit; }
.hq-launch-gate-link:hover .hq-launch-gate-label { color: var(--accent); }
.hq-launch-gate-dot {
  width: 8px; height: 8px; align-self: center; border-radius: var(--r-pill, 999px);
  background: var(--ink-ghost);
}
.hq-launch-gate-dot[data-state="clear"] { background: #16a34a; }
.hq-launch-gate-dot[data-state="pending"] { background: transparent; box-shadow: inset 0 0 0 1.5px var(--border-soft); }
.hq-launch-gate-label { font-size: 13.5px; font-weight: 600; color: var(--ink); white-space: nowrap; }
.hq-launch-gate-manual { font-family: var(--font-mono-stack); font-size: 9.5px; font-weight: 400; color: var(--ink-ghost); letter-spacing: 0.04em; }
.hq-launch-gate-detail { font-size: 12.5px; color: var(--ink-quiet); line-height: 1.45; }
@media (max-width: 720px) {
  .hq-launch { grid-template-columns: 1fr; gap: 18px; }
  .hq-launch-gate-link { grid-template-columns: 14px 1fr; }
  .hq-launch-gate-detail { grid-column: 2; }
}

/* ── Operator to-do ledger ───────────────────────────────────────────
   The founder accountability surface: every operator-gated task in the
   suite, logged from `content/hq/operator-todos/*.md`. Open P0 blockers
   read loud; done tasks sink and grey. Calm, no chrome. */
.hq-optodo {
  margin: 0 0 2.5rem; padding: 22px 24px;
  border: 1px solid var(--border-soft); border-radius: var(--r-4, 14px); background: var(--bg-elev);
}
.hq-optodo-head { display: flex; flex-direction: column; gap: 4px; margin-bottom: 14px; }
.hq-optodo-title { font-size: clamp(20px, 3vw, 26px); font-weight: 600; letter-spacing: -0.02em; color: var(--ink); margin: 2px 0 0; }
.hq-optodo-sub { font-size: 13px; color: var(--ink-quiet); line-height: 1.5; max-width: 60ch; }
.hq-optodo-count {
  margin-top: 6px; font-family: var(--font-mono-stack); font-size: 11px; letter-spacing: 0.04em;
  color: var(--ink-quiet);
}
.hq-optodo-count[data-clear="true"] { color: #16a34a; }
.hq-optodo-list { list-style: none; margin: 0; padding: 0; display: flex; flex-direction: column; }
.hq-optodo-row { border-top: 1px solid var(--border-soft); }
.hq-optodo-row:first-child { border-top: 0; }
.hq-optodo-row[data-status="done"] { opacity: 0.5; }
.hq-optodo-details { width: 100%; }
.hq-optodo-summary {
  display: grid; grid-template-columns: 18px 1fr auto; align-items: baseline; gap: 12px;
  padding: 13px 0; cursor: pointer; list-style: none;
}
.hq-optodo-summary::-webkit-details-marker { display: none; }
.hq-optodo-summary:hover .hq-optodo-row-title { color: var(--accent); }
.hq-optodo-check {
  align-self: center; width: 16px; height: 16px; border-radius: var(--r-pill, 999px);
  box-shadow: inset 0 0 0 1.5px var(--border-soft);
  display: inline-flex; align-items: center; justify-content: center;
  font-size: 10px; color: transparent;
}
.hq-optodo-check[data-status="done"] { background: #16a34a; box-shadow: none; color: #fff; }
.hq-optodo-main { display: flex; flex-direction: column; gap: 2px; min-width: 0; }
.hq-optodo-row-title { font-size: 14px; font-weight: 600; color: var(--ink); line-height: 1.35; }
.hq-optodo-why { font-size: 12.5px; color: var(--ink-quiet); line-height: 1.45; }
.hq-optodo-tags { display: flex; align-items: center; gap: 6px; flex-wrap: wrap; justify-content: flex-end; }
.hq-optodo-tag {
  font-family: var(--font-mono-stack); font-size: 9.5px; font-weight: 500; letter-spacing: 0.04em;
  padding: 2px 6px; border-radius: var(--r-pill, 999px); white-space: nowrap;
  border: 1px solid var(--border-soft); color: var(--ink-quiet);
}
.hq-optodo-tag--prio[data-priority="P0"] { color: #b91c1c; border-color: rgba(185, 28, 28, 0.3); }
.hq-optodo-tag--prio[data-priority="P1"] { color: var(--ink-quiet); }
.hq-optodo-tag--prio[data-priority="P2"] { color: var(--ink-ghost); }
.hq-optodo-tag--block { color: #b45309; border-color: rgba(180, 83, 9, 0.3); }
.hq-optodo-tag--phase { color: var(--ink-ghost); }
.hq-optodo-body { padding: 2px 0 14px 30px; }
.hq-optodo-steps {
  font-family: var(--font-mono-stack); font-size: 12px; line-height: 1.6; color: var(--ink-quiet);
  white-space: pre-wrap; margin: 0; padding: 0; background: none; border: 0;
}
.hq-optodo-link { display: inline-block; margin-top: 8px; font-size: 12.5px; color: var(--accent); text-decoration: none; }
.hq-optodo-link:hover { text-decoration: underline; }
@media (max-width: 720px) {
  .hq-optodo-summary { grid-template-columns: 18px 1fr; }
  .hq-optodo-tags { grid-column: 2; justify-content: flex-start; margin-top: 4px; }
  .hq-optodo-body { padding-left: 0; }
}

/* ── Data room ───────────────────────────────────────────────────────── */
.hq-dr { display: flex; flex-direction: column; gap: 30px; margin-top: 2rem; }
.hq-dr-section { display: grid; grid-template-columns: minmax(180px, 220px) 1fr; gap: clamp(16px, 3vw, 40px); }
.hq-dr-head { position: sticky; top: 88px; align-self: start; }
.hq-dr-title { font-size: 15px; font-weight: 600; color: var(--ink); letter-spacing: -0.01em; margin: 0 0 5px; }
.hq-dr-blurb { font-size: 12.5px; color: var(--ink-quiet); line-height: 1.5; margin: 0; }
.hq-dr-ledger { display: flex; flex-direction: column; border-top: 1px solid var(--border-soft); }
.hq-dr-row {
  display: grid; grid-template-columns: 76px 1.1fr 2fr auto; align-items: baseline; gap: 14px;
  padding: 13px 0; border-bottom: 1px solid var(--border-soft); text-decoration: none; color: inherit;
  transition: background var(--motion-fast) var(--ease-out);
}
.hq-dr-row:hover:not(.hq-dr-row--static) { background: var(--paper-soft); }
.hq-dr-row--static { opacity: 0.72; }
.hq-dr-state {
  font-family: var(--font-mono-stack); font-size: 9.5px; letter-spacing: 0.08em; text-transform: uppercase;
  padding: 3px 7px; border-radius: var(--r-pill, 999px); border: 1px solid var(--border-soft);
  color: var(--ink-quiet); white-space: nowrap; justify-self: start;
}
.hq-dr-state[data-state="ready"] { color: var(--accent-deep); border-color: var(--accent); background: var(--accent-soft); }
.hq-dr-state[data-state="external"] { color: var(--ink-quiet); }
.hq-dr-state[data-state="pending"] { color: var(--ink-ghost); }
.hq-dr-label { font-size: 13.5px; font-weight: 600; color: var(--ink); }
.hq-dr-row:hover:not(.hq-dr-row--static) .hq-dr-label { color: var(--accent); }
.hq-dr-note { font-size: 12.5px; color: var(--ink-quiet); line-height: 1.45; }
.hq-dr-action { font-family: var(--font-mono-stack); font-size: 11px; color: var(--ink-ghost); white-space: nowrap; justify-self: end; }
.hq-dr-foot {
  display: flex; align-items: center; justify-content: space-between; gap: 12px; margin-top: 36px;
  padding-top: 18px; border-top: 1px solid var(--border-soft);
  font-family: var(--font-mono-stack); font-size: 12px; color: var(--ink-quiet);
}
.hq-dr-back { color: var(--ink-soft); text-decoration: none; }
.hq-dr-back:hover { color: var(--accent); }
@media (max-width: 720px) {
  .hq-dr-section { grid-template-columns: 1fr; gap: 12px; }
  .hq-dr-head { position: static; }
  .hq-dr-row { grid-template-columns: 64px 1fr; }
  .hq-dr-note, .hq-dr-action { grid-column: 2; }
}

/* ════════════════════════════════════════════════════════════════════
   SIGNAL HQ — financial model (2026-06-19)
   Light register. A projection, dressed honestly: assumptions read as
   assumptions, the one accent reserved for the numbers a lender checks.
   ════════════════════════════════════════════════════════════════════ */
.hq-fm-mono { font-family: var(--font-mono-stack); font-size: 0.92em; color: var(--ink-quiet); }

.hq-fm-heads {
  display: grid; grid-template-columns: repeat(auto-fit, minmax(180px, 1fr)); gap: 1px;
  margin: 0 0 2rem; border: 1px solid var(--border-soft); border-radius: var(--r-4, 14px);
  overflow: hidden; background: var(--border-soft);
}
.hq-fm-head { background: var(--bg-elev); padding: 18px 18px; display: flex; flex-direction: column; gap: 3px; }
.hq-fm-head-value { font-size: 28px; font-weight: 600; letter-spacing: -0.025em; color: var(--ink); line-height: 1; }
.hq-fm-head[data-tone="accent"] .hq-fm-head-value { color: var(--accent); }
.hq-fm-head-label { font-size: 13px; font-weight: 500; color: var(--ink-soft); margin-top: 6px; }
.hq-fm-head-note { font-size: 11.5px; color: var(--ink-quiet); }

.hq-fm-unit, .hq-fm-overlay, .hq-fm-table-wrap { margin-top: 2.5rem; }
.hq-fm-unit-head { margin-bottom: 1rem; }
.hq-fm-unit-head p { margin: 6px 0 0; font-size: 13.5px; color: var(--ink-quiet); line-height: 1.5; max-width: 70ch; }

.hq-fm-unit-grid { display: grid; grid-template-columns: repeat(auto-fit, minmax(120px, 1fr)); gap: 1px; border: 1px solid var(--border-soft); border-radius: var(--r-4, 14px); overflow: hidden; background: var(--border-soft); }
.hq-fm-unit-cell { background: var(--bg-elev); padding: 16px; display: flex; flex-direction: column; gap: 4px; }
.hq-fm-unit-value { font-size: 20px; font-weight: 600; color: var(--ink); letter-spacing: -0.01em; }
.hq-fm-unit-cell[data-tone="accent"] .hq-fm-unit-value { color: var(--accent); }
.hq-fm-unit-label { font-family: var(--font-mono-stack); font-size: 10.5px; letter-spacing: 0.06em; text-transform: uppercase; color: var(--ink-quiet); }

.hq-fm-overlay-grid { display: grid; grid-template-columns: repeat(auto-fit, minmax(220px, 1fr)); gap: 14px; }
.hq-fm-overlay-cell { border: 1px solid var(--border-soft); border-radius: var(--r-3); padding: 14px 16px; background: var(--bg-elev); }
.hq-fm-overlay-label { font-size: 13px; font-weight: 600; color: var(--ink); }
.hq-fm-overlay-vals { display: flex; gap: 18px; margin-top: 8px; }
.hq-fm-overlay-plan { font-family: var(--font-mono-stack); font-size: 13px; color: var(--ink-quiet); }
.hq-fm-overlay-actual { font-family: var(--font-mono-stack); font-size: 13px; color: var(--ink); }
.hq-fm-overlay-note { margin: 14px 0 0; font-size: 12.5px; color: var(--ink-quiet); line-height: 1.5; max-width: 72ch; }

.hq-fm-scroll { overflow-x: auto; border: 1px solid var(--border-soft); border-radius: var(--r-4, 14px); }
.hq-fm-table { width: 100%; border-collapse: collapse; font-size: 12.5px; min-width: 720px; }
.hq-fm-table th, .hq-fm-table td { padding: 9px 12px; text-align: right; border-bottom: 1px solid var(--border-soft); white-space: nowrap; }
.hq-fm-table thead th { font-family: var(--font-mono-stack); font-size: 10px; letter-spacing: 0.06em; text-transform: uppercase; color: var(--ink-quiet); font-weight: 600; background: var(--paper-soft); position: sticky; top: 0; }
.hq-fm-table thead th:first-child, .hq-fm-table tbody th { text-align: left; }
.hq-fm-table tbody th { font-weight: 600; color: var(--ink); }
.hq-fm-table tbody tr:hover td, .hq-fm-table tbody tr:hover th { background: var(--paper-soft); }
.hq-fm-table tr[data-launch="true"] th, .hq-fm-table tr[data-launch="true"] td { background: var(--accent-soft); }
.hq-fm-table td { color: var(--ink-soft); font-variant-numeric: tabular-nums; }
.hq-fm-cost { color: var(--ink-quiet); }
.hq-fm-cash { font-weight: 600; color: var(--ink); }
.hq-fm-table td[data-neg="true"] { color: #dc2626; }
.hq-fm-launch { margin-left: 8px; font-family: var(--font-mono-stack); font-size: 9px; letter-spacing: 0.08em; text-transform: uppercase; color: var(--accent-deep); border: 1px solid var(--accent); border-radius: var(--r-pill, 999px); padding: 1px 6px; }
@media (max-width: 600px) { .hq-fm-head-value { font-size: 24px; } }

/* ════════════════════════════════════════════════════════════════════
   SIGNAL HQ — company: cap table + incorporation (2026-06-19)
   Light register. Pre-incorporation honesty: the status banner says so,
   confirmed steps earn the one tick, everything else stays quiet.
   ════════════════════════════════════════════════════════════════════ */
.hq-co-status {
  display: inline-block; margin-top: 14px; padding: 5px 12px;
  font-family: var(--font-mono-stack); font-size: 11px; letter-spacing: 0.04em;
  color: var(--ink-soft); background: var(--paper-deep);
  border: 1px solid var(--border-soft); border-radius: var(--r-pill, 999px);
}
.hq-co-status[data-status="pre-incorporation"] { color: #92400e; background: #fef3c7; border-color: #fde68a; }

/* Ownership bar */
.hq-co-ownerbar { display: flex; gap: 2px; margin: 2rem 0; height: 64px; border-radius: var(--r-3); overflow: hidden; }
.hq-co-ownerbar-seg {
  display: flex; flex-direction: column; align-items: flex-start; justify-content: center;
  padding: 0 16px; background: var(--paper-deep); color: var(--ink-soft); min-width: 0;
}
.hq-co-ownerbar-seg[data-voting="true"] { background: var(--accent); color: #fff; }
.hq-co-ownerbar-pct { font-size: 20px; font-weight: 600; letter-spacing: -0.02em; }
.hq-co-ownerbar-who { font-family: var(--font-mono-stack); font-size: 11px; opacity: 0.85; white-space: nowrap; }

/* Cap table extras (reuses .hq-fm-table / .hq-fm-scroll) */
.hq-co-table-wrap { margin-top: 0.5rem; }
.hq-co-role { display: block; font-family: var(--font-mono-stack); font-size: 10.5px; font-weight: 400; color: var(--ink-quiet); margin-top: 2px; }
.hq-co-class { color: var(--ink-soft); }
.hq-co-table tr.hq-co-total th, .hq-co-table tr.hq-co-total td { border-top: 2px solid var(--border-soft); font-weight: 600; color: var(--ink); }
.hq-co-foot-note { margin: 12px 0 0; font-size: 12.5px; color: var(--ink-quiet); line-height: 1.5; }

/* Generic company blocks */
.hq-co-block { margin-top: 2.5rem; }
.hq-co-rights { display: grid; grid-template-columns: repeat(auto-fit, minmax(260px, 1fr)); gap: 14px; }
.hq-co-right { border: 1px solid var(--border-soft); border-radius: var(--r-3); padding: 16px 18px; background: var(--bg-elev); }
.hq-co-right-cls { font-size: 14px; font-weight: 600; color: var(--ink); margin: 0 0 6px; }
.hq-co-right-body { font-size: 13px; line-height: 1.55; color: var(--ink-quiet); margin: 0; }
.hq-co-bo { list-style: none; margin: 0 0 4px; padding: 0; display: flex; flex-direction: column; gap: 8px; }
.hq-co-bo li { display: flex; flex-wrap: wrap; gap: 4px 12px; align-items: baseline; }
.hq-co-bo-who { font-size: 13.5px; font-weight: 600; color: var(--ink); }
.hq-co-bo-basis { font-size: 12.5px; color: var(--ink-quiet); }
.hq-co-srclink { color: var(--ink-soft); text-decoration: none; }
.hq-co-srclink:hover { color: var(--accent); }

/* Company facts (incorporation) */
.hq-co-facts { display: grid; grid-template-columns: repeat(auto-fit, minmax(220px, 1fr)); gap: 1px; margin: 0 0 1rem; border: 1px solid var(--border-soft); border-radius: var(--r-4, 14px); overflow: hidden; background: var(--border-soft); }
.hq-co-fact { background: var(--bg-elev); padding: 14px 16px; display: flex; flex-direction: column; gap: 4px; }
.hq-co-fact-label { font-family: var(--font-mono-stack); font-size: 10px; letter-spacing: 0.1em; text-transform: uppercase; color: var(--ink-quiet); }
.hq-co-fact-value { font-size: 13px; color: var(--ink); line-height: 1.4; }
.hq-co-target { font-family: var(--font-mono-stack); color: var(--ink); white-space: nowrap; }
.hq-co-gates { color: var(--ink-quiet); white-space: normal; text-align: left; }

/* Incorporation phased checklist */
.hq-incorp { display: flex; flex-direction: column; gap: 22px; }
.hq-incorp-phase-head { margin-bottom: 10px; }
.hq-incorp-phase-title { font-size: 14px; font-weight: 600; color: var(--ink); margin: 0; }
.hq-incorp-phase-blurb { font-size: 12.5px; color: var(--ink-quiet); margin: 3px 0 0; }
.hq-incorp-steps { list-style: none; margin: 0; padding: 0; border-top: 1px solid var(--border-soft); }
.hq-incorp-step { display: grid; grid-template-columns: 20px 1fr auto; align-items: baseline; gap: 12px; padding: 10px 0; border-bottom: 1px solid var(--border-soft); }
.hq-incorp-step-mark { justify-self: center; align-self: center; width: 14px; height: 14px; display: inline-flex; align-items: center; justify-content: center; border-radius: var(--r-pill, 999px); font-size: 9px; color: #fff; }
.hq-incorp-step[data-status="done"] .hq-incorp-step-mark { background: #16a34a; }
.hq-incorp-step[data-status="todo"] .hq-incorp-step-mark { box-shadow: inset 0 0 0 1.5px var(--border-soft); }
.hq-incorp-step[data-status="future"] .hq-incorp-step-mark { box-shadow: inset 0 0 0 1.5px var(--paper-deep); }
.hq-incorp-step-label { font-size: 13px; color: var(--ink); line-height: 1.45; }
.hq-incorp-step[data-status="future"] .hq-incorp-step-label { color: var(--ink-quiet); }
.hq-incorp-step-note { color: var(--ink-quiet); font-size: 12px; }
.hq-incorp-step-status { font-family: var(--font-mono-stack); font-size: 9.5px; letter-spacing: 0.06em; text-transform: uppercase; color: var(--ink-ghost); white-space: nowrap; }
.hq-incorp-step[data-status="done"] .hq-incorp-step-status { color: #16a34a; }
.hq-co-notneeded { list-style: none; margin: 0; padding: 0; display: grid; grid-template-columns: repeat(auto-fit, minmax(260px, 1fr)); gap: 8px 18px; }
.hq-co-notneeded li { font-size: 13px; color: var(--ink-quiet); padding-left: 18px; position: relative; }
.hq-co-notneeded li::before { content: "—"; position: absolute; left: 0; color: var(--ink-ghost); }

/* Cap-table view toggle (internal / external-redacted) */
.hq-co-viewtoggle { display: inline-flex; gap: 2px; margin-top: 16px; padding: 3px; border: 1px solid var(--border-soft); border-radius: var(--r-pill, 999px); background: var(--paper-soft); }
.hq-co-viewtab { font-family: var(--font-mono-stack); font-size: 11px; letter-spacing: 0.03em; color: var(--ink-quiet); text-decoration: none; padding: 5px 13px; border-radius: var(--r-pill, 999px); transition: background var(--motion-fast) var(--ease-out), color var(--motion-fast) var(--ease-out); }
.hq-co-viewtab:hover { color: var(--ink); }
.hq-co-viewtab[data-active="true"] { background: var(--ink); color: #fff; }
.hq-co-redactnote { margin: 12px 0 0; font-size: 12.5px; line-height: 1.5; color: #92400e; max-width: 68ch; }
.hq-page[data-view="external"] .hq-co-redactnote::before { content: "● "; color: #16a34a; }
.hq-dr-back--static { color: var(--ink-quiet); }
@media (max-width: 600px) {
  .hq-co-ownerbar { height: 56px; }
  .hq-incorp-step { grid-template-columns: 20px 1fr; }
  .hq-incorp-step-status { grid-column: 2; }
}

/* ════════════════════════════════════════════════════════════════════
   SIGNAL HQ — demo film scaffold (2026-06-20)
   ════════════════════════════════════════════════════════════════════ */
.hq-film-board { display: flex; flex-direction: column; }
.hq-film-scene { display: grid; grid-template-columns: 92px 1fr; gap: 18px; padding: 16px 0; border-top: 1px solid var(--border-soft); }
.hq-film-scene:first-child { border-top: 0; }
.hq-film-scene-rail { display: flex; flex-direction: column; gap: 3px; }
.hq-film-scene-n { font-size: 22px; font-weight: 600; color: var(--ink-ghost); letter-spacing: -0.02em; line-height: 1; }
.hq-film-scene-t { font-family: var(--font-mono-stack); font-size: 11px; color: var(--accent); }
.hq-film-scene-beat { margin: 0; font-size: 14px; line-height: 1.55; color: var(--ink); }
.hq-film-scene-caption { margin: 7px 0 0; font-size: 15px; font-weight: 600; letter-spacing: -0.01em; color: var(--accent-deep); }
.hq-film-scene-meta { display: flex; flex-wrap: wrap; gap: 8px 16px; margin-top: 9px; }
.hq-film-scene-gesture { font-family: var(--font-mono-stack); font-size: 10.5px; letter-spacing: 0.04em; color: var(--ink-soft); border: 1px solid var(--border-soft); border-radius: var(--r-pill, 999px); padding: 2px 9px; }
.hq-film-scene-sound { font-family: var(--font-mono-stack); font-size: 11px; color: var(--ink-quiet); align-self: center; }
.hq-film-grammar-product { font-family: var(--font-mono-stack); font-size: 10.5px; font-weight: 400; color: var(--accent); text-transform: uppercase; letter-spacing: 0.04em; }
.hq-incorp-step-status[data-blocked="true"] { color: #b45309; }
@media (max-width: 600px) {
  .hq-film-scene { grid-template-columns: 1fr; gap: 8px; }
  .hq-film-scene-rail { flex-direction: row; align-items: baseline; gap: 10px; }
}
.hq-film-build { margin: 14px 0 0; font-size: 12.5px; line-height: 1.55; color: var(--ink-quiet); max-width: 78ch; }
.hq-film-build-label { font-family: var(--font-mono-stack); font-size: 10px; letter-spacing: 0.1em; text-transform: uppercase; color: var(--accent); margin-right: 6px; }

/* ── HQ operating system v6 (docs/HQ_ARCHITECTURE.md) ──────────────────
   Shared page header, the one status pill, Today truth strip +
   needs-me queue + group cards + full-read disclosure, the group
   landing pages, and the decision ledger. One register: paper, ink,
   one indigo, hairlines, mono eyebrows. */

/* Shared page header — every non-artifact room */
.hq-page-head {
  padding: 2.4rem 0 1.6rem;
  border-bottom: 1px solid var(--hairline);
}

.hq-page-head-back {
  font-family: var(--font-mono-stack);
  font-size: 11px;
  letter-spacing: 0.05em;
  text-transform: lowercase;
  color: var(--ink-quiet);
  text-decoration: none;
}

.hq-page-head-back:hover { color: var(--accent); }

.hq-page-head-eyebrow {
  display: flex;
  align-items: center;
  gap: 0.45rem;
  margin: 1.4rem 0 0;
  font-family: var(--font-mono-stack);
  font-size: 10.5px;
  letter-spacing: 0.05em;
  text-transform: lowercase;
  color: var(--ink-quiet);
}

.hq-page-head-dot {
  width: 6px;
  height: 6px;
  border-radius: 999px;
  background: var(--accent);
}

.hq-page-head-title {
  margin: 0.55rem 0 0;
  font-size: clamp(1.75rem, 1.25rem + 1.8vw, 2.6rem);
  font-weight: 500;
  line-height: 1.08;
  color: var(--ink);
}

.hq-page-head-standfirst {
  margin: 0.7rem 0 0;
  max-width: 62ch;
  font-size: 15px;
  line-height: 1.6;
  color: var(--ink-soft);
}

.hq-page-head-meta {
  display: flex;
  align-items: center;
  gap: 0.7rem;
  margin-top: 0.9rem;
}

.hq-page-head-note {
  font-family: var(--font-mono-stack);
  font-size: 10.5px;
  letter-spacing: 0.04em;
  color: var(--ink-quiet);
}

/* The one status pill. Indigo = review = needs the founder. */
.hq-pill {
  display: inline-flex;
  align-items: center;
  padding: 0.1rem 0.55rem;
  border-radius: 999px;
  border: 1px solid var(--hairline);
  background: var(--paper);
  font-family: var(--font-mono-stack);
  font-size: 10.5px;
  letter-spacing: 0.04em;
  text-transform: lowercase;
  color: var(--ink-soft);
}

.hq-pill[data-status="review"] {
  border-color: var(--accent);
  background: var(--accent-soft);
  color: var(--accent);
}

.hq-pill[data-status="blocked"] {
  border-color: var(--ink);
  color: var(--ink);
  font-weight: 600;
}

.hq-pill[data-status="done"] { color: var(--ink-quiet); }
.hq-pill[data-status="parked"] { color: var(--ink-quiet); border-style: dashed; }

/* Today: truth strip */
.hq-truth {
  margin-top: 1.6rem;
  border: 1px solid var(--hairline);
  border-radius: 6px;
  background: var(--paper);
  overflow: hidden;
}

.hq-truth-line {
  margin: 0;
  padding: 0.75rem 1rem;
  border-bottom: 1px solid var(--hairline-2);
  font-family: var(--font-mono-stack);
  font-size: 11px;
  letter-spacing: 0.03em;
  line-height: 1.6;
  color: var(--ink-soft);
}

.hq-truth-row {
  display: grid;
  grid-template-columns: repeat(auto-fit, minmax(9.5rem, 1fr));
}

.hq-truth-cell {
  display: flex;
  flex-direction: column;
  gap: 0.3rem;
  padding: 0.85rem 1rem 0.95rem;
  border-right: 1px solid var(--hairline-2);
  text-decoration: none;
  color: var(--ink);
  transition: background 0.12s ease-out;
}

.hq-truth-cell:last-child { border-right: 0; }
.hq-truth-cell:hover { background: var(--paper-soft); }

.hq-truth-label {
  font-family: var(--font-mono-stack);
  font-size: 10.5px;
  letter-spacing: 0.05em;
  text-transform: lowercase;
  color: var(--ink-quiet);
}

.hq-truth-cell[data-tone="accent"] .hq-truth-label { color: var(--accent); }
.hq-truth-cell[data-tone="critical"] .hq-truth-label { color: var(--ink); font-weight: 600; }

.hq-truth-value {
  font-size: 22px;
  font-weight: 500;
  line-height: 1.15;
  font-variant-numeric: tabular-nums;
}

.hq-truth-value--action { font-size: 14px; line-height: 1.4; }

.hq-truth-note {
  font-size: 11.5px;
  line-height: 1.45;
  color: var(--ink-quiet);
}

/* Today: needs-me queue */
.hq-needsme { margin-top: 2.6rem; }

.hq-needsme-head {
  display: flex;
  align-items: baseline;
  justify-content: space-between;
  gap: 1rem;
  margin-bottom: 1rem;
}

.hq-needsme-title {
  margin: 0.4rem 0 0;
  font-size: clamp(1.3rem, 1rem + 1vw, 1.8rem);
  font-weight: 500;
  line-height: 1.15;
  color: var(--ink);
}

.hq-needsme-empty {
  margin: 0;
  font-size: 14px;
  color: var(--ink-quiet);
}

.hq-needsme-list {
  margin: 0;
  padding: 0;
  list-style: none;
  border-top: 1px solid var(--hairline);
}

.hq-needsme-row {
  display: grid;
  grid-template-columns: 8.5rem minmax(0, 1.1fr) minmax(0, 1.4fr) auto;
  gap: 1rem;
  align-items: baseline;
  padding: 0.8rem 0.25rem;
  border-bottom: 1px solid var(--hairline-2);
  text-decoration: none;
  color: var(--ink);
  transition: background 0.12s ease-out;
}

a.hq-needsme-row:hover { background: var(--paper-soft); }
a.hq-needsme-row:hover .hq-needsme-arrow { color: var(--accent); }

.hq-needsme-tag {
  font-family: var(--font-mono-stack);
  font-size: 10.5px;
  letter-spacing: 0.04em;
  text-transform: lowercase;
  color: var(--ink-quiet);
}

.hq-needsme-tag[data-rank="0"] { color: var(--accent); font-weight: 600; }

.hq-needsme-item-title {
  font-size: 14px;
  font-weight: 500;
  line-height: 1.4;
}

.hq-needsme-item-detail {
  font-size: 12.5px;
  line-height: 1.5;
  color: var(--ink-soft);
}

.hq-needsme-arrow { color: var(--ink-quiet); }

.hq-needsme-overflow {
  margin: 0.7rem 0 0;
  font-family: var(--font-mono-stack);
  font-size: 10.5px;
  letter-spacing: 0.04em;
  color: var(--ink-quiet);
}

/* Today: group cards */
.hq-groups { margin-top: 2.6rem; }

.hq-groups-grid {
  display: grid;
  grid-template-columns: repeat(auto-fit, minmax(12rem, 1fr));
  border-top: 1px solid var(--hairline-2);
  border-left: 1px solid var(--hairline-2);
}

.hq-groups-card {
  display: flex;
  flex-direction: column;
  gap: 0.5rem;
  padding: 1.1rem 1rem 1.15rem;
  border-right: 1px solid var(--hairline-2);
  border-bottom: 1px solid var(--hairline-2);
  text-decoration: none;
  color: var(--ink);
  transition: background 0.12s ease-out, box-shadow 0.12s ease-out;
}

.hq-groups-card:hover {
  background: var(--paper);
  box-shadow: inset 2px 0 0 var(--accent);
}

.hq-groups-card-label {
  font-family: var(--font-mono-stack);
  font-size: 12px;
  letter-spacing: 0.05em;
  text-transform: lowercase;
  color: var(--accent);
}

.hq-groups-card-gloss {
  font-size: 13.5px;
  line-height: 1.5;
  color: var(--ink);
  min-height: 3.1rem;
}

.hq-groups-card-meta,
.hq-groups-card-action {
  font-family: var(--font-mono-stack);
  font-size: 10.5px;
  letter-spacing: 0.05em;
  text-transform: lowercase;
  color: var(--ink-quiet);
}

.hq-groups-foot {
  margin: 0.9rem 0 0;
  font-size: 12.5px;
  color: var(--ink-quiet);
}

.hq-groups-foot kbd {
  font-family: var(--font-mono-stack);
  font-size: 10.5px;
  padding: 0.05rem 0.35rem;
  border: 1px solid var(--hairline);
  border-radius: 4px;
  background: var(--paper);
}

/* Today: the full read (progressive disclosure) */
.hq-fullread {
  margin-top: 2.6rem;
  border-top: 1px solid var(--hairline);
}

.hq-fullread-summary {
  display: flex;
  align-items: baseline;
  gap: 1rem;
  padding: 1rem 0.25rem;
  cursor: pointer;
  list-style: none;
}

.hq-fullread-summary::-webkit-details-marker { display: none; }

.hq-fullread-summary::before {
  content: "\25B8";
  font-size: 11px;
  color: var(--ink-quiet);
  transition: transform 0.12s ease-out;
}

.hq-fullread[open] > .hq-fullread-summary::before { transform: rotate(90deg); }

.hq-fullread-summary:hover .hq-os-eyebrow { color: var(--accent); }

.hq-fullread-hint {
  font-family: var(--font-mono-stack);
  font-size: 10.5px;
  letter-spacing: 0.04em;
  text-transform: lowercase;
  color: var(--ink-quiet);
}

.hq-fullread-body {
  display: flex;
  flex-direction: column;
  gap: 2rem;
  padding-bottom: 2rem;
}

/* Group landing pages */
.hq-group,
.hq-decisions,
.hq-decision {
  max-width: 72rem;
  margin: 0 auto;
  padding: 0 1.25rem 4rem;
}

.hq-group-grid {
  display: grid;
  grid-template-columns: repeat(auto-fill, minmax(14rem, 1fr));
  margin-top: 1.8rem;
  border-top: 1px solid var(--hairline-2);
  border-left: 1px solid var(--hairline-2);
}

.hq-group-card {
  display: flex;
  flex-direction: column;
  gap: 0.5rem;
  padding: 1.1rem 1rem 1.15rem;
  border-right: 1px solid var(--hairline-2);
  border-bottom: 1px solid var(--hairline-2);
  text-decoration: none;
  color: var(--ink);
  transition: background 0.12s ease-out, box-shadow 0.12s ease-out;
}

.hq-group-card:hover {
  background: var(--paper);
  box-shadow: inset 2px 0 0 var(--accent);
}

.hq-group-card-kind {
  font-family: var(--font-mono-stack);
  font-size: 10.5px;
  letter-spacing: 0.05em;
  text-transform: lowercase;
  color: var(--ink-quiet);
}

.hq-group-card-name {
  font-size: 15px;
  font-weight: 500;
  line-height: 1.35;
}

.hq-group-card-summary {
  font-size: 12.5px;
  line-height: 1.55;
  color: var(--ink-soft);
  min-height: 3.6rem;
}

.hq-group-card-action {
  font-family: var(--font-mono-stack);
  font-size: 10.5px;
  letter-spacing: 0.05em;
  text-transform: lowercase;
  color: var(--accent);
}

.hq-group-shelf { margin-top: 2.4rem; }

.hq-group-shelf-list {
  margin: 0.9rem 0 0;
  padding: 0;
  list-style: none;
  border-top: 1px solid var(--hairline);
}

.hq-group-shelf-row {
  display: grid;
  grid-template-columns: minmax(0, 0.9fr) minmax(0, 1.6fr) auto;
  gap: 1rem;
  align-items: baseline;
  padding: 0.65rem 0.25rem;
  border-bottom: 1px solid var(--hairline-2);
  text-decoration: none;
  color: var(--ink-soft);
  transition: color 0.12s ease-out;
}

.hq-group-shelf-row:hover { color: var(--ink); }

.hq-group-shelf-name { font-size: 13.5px; font-weight: 500; }

.hq-group-shelf-summary { font-size: 12px; line-height: 1.5; }

.hq-group-shelf-state {
  font-family: var(--font-mono-stack);
  font-size: 10.5px;
  letter-spacing: 0.04em;
  text-transform: lowercase;
  color: var(--ink-quiet);
}

/* Decision ledger */
.hq-decisions-list {
  margin: 1.8rem 0 0;
  padding: 0;
  list-style: none;
  border-top: 1px solid var(--hairline);
}

.hq-decisions-row {
  display: flex;
  align-items: baseline;
  justify-content: space-between;
  gap: 1.2rem;
  padding: 0.75rem 0.25rem;
  border-bottom: 1px solid var(--hairline-2);
  text-decoration: none;
  color: var(--ink);
  transition: background 0.12s ease-out;
}

.hq-decisions-row:hover { background: var(--paper-soft); }

.hq-decisions-row-title {
  font-size: 14px;
  font-weight: 500;
  line-height: 1.45;
}

.hq-decisions-row-meta {
  display: flex;
  align-items: baseline;
  gap: 0.7rem;
  flex-shrink: 0;
}

.hq-decisions-row-cat,
.hq-decisions-row-date {
  font-family: var(--font-mono-stack);
  font-size: 10.5px;
  letter-spacing: 0.04em;
  text-transform: lowercase;
  color: var(--ink-quiet);
}

.hq-decision-section { margin-top: 2rem; max-width: 68ch; }

.hq-decision-section h2 {
  margin: 0 0 0.6rem;
  font-size: 17px;
  font-weight: 600;
  color: var(--ink);
}

.hq-decision-section p {
  margin: 0 0 0.8rem;
  font-size: 14px;
  line-height: 1.7;
  color: var(--ink-soft);
  white-space: pre-line;
}

.hq-decision-related {
  margin-top: 2.4rem;
  padding-top: 1rem;
  border-top: 1px solid var(--hairline);
}

.hq-decision-related p {
  margin: 0.5rem 0 0;
  font-family: var(--font-mono-stack);
  font-size: 11px;
  color: var(--ink-quiet);
}

@media (max-width: 640px) {
  .hq-needsme-row {
    grid-template-columns: 1fr auto;
    grid-template-areas: "tag arrow" "title arrow" "detail arrow";
  }
  .hq-needsme-tag { grid-area: tag; }
  .hq-needsme-item-title { grid-area: title; }
  .hq-needsme-item-detail { grid-area: detail; }
  .hq-needsme-arrow { grid-area: arrow; align-self: center; }

  .hq-decisions-row { flex-direction: column; gap: 0.35rem; }
}
